Affective_Computing_Project_Archive_2025/facial_expression_model.pth (torch, 532658 bytes, 12 tensors)

conv1.weight f4 [32, 2, 3]
0.16416307 0.18339084 -0.29712018 -0.12233537 -0.548145 -0.07120217 -0.11625833 -0.29373115
-0.4438737 -0.6531336 -0.20556292 0.2266572 -0.6188978 -0.12479307 0.40654537 -0.32084477
-0.13524477 -0.5769004 -0.2617116 -0.35648957 -0.44024578 -0.17097409 0.1923214 0.11088029
0.9100449 -0.2106081 0.44242924 -0.8964814 0.36660722 -0.055858735 0.02350691 0.2833649
0.46523544 -0.24673921 0.6451052 -0.37688535 0.6130176 -0.5100628 -0.6612254 0.06409708
-0.32869652 -0.014659995 -0.9006425 -1.4233751 -0.3994365 0.2865068 0.04096879 0.7676946
-0.017695427 0.2332409 -0.15521479 -0.061998785 -0.22161381 -0.018324494 -0.4819818 0.06449768
0.19163397 0.40846762 -0.5985045 1.1588598 -0.11634603 -0.2575346 0.14262775 0.21591137
0.05504815 0.027853172 0.38670698 -0.29212916 0.053512 0.309151 -0.2988485 -0.111108795
-0.095839776 -0.4019417 -0.988715 -0.23190705 -1.0106366 -0.7170029 -0.20398884 -0.18238428
-0.42754275 0.121733174 -0.0006063684 0.23402037 0.500623 -0.52758384 0.67179525 0.3200821
-0.06035671 -0.07586862 -0.010050323 -0.42623818 -0.19406101 -0.12191041 0.23494314 -0.49572325
0.16031832 -0.37706524 0.6725258 -0.2889693 -0.38929823 -0.7528684 0.010732416 0.4545508
-0.47127298 0.45804024 0.030649042 -0.6546334 0.31135976 -0.3067737 -0.100655735 -0.01819235
0.17753279 -0.33945665 -0.17068969 0.054352034 -0.45204476 -0.18542027 0.16010475 -0.09249467
0.20759568 -0.095342785 0.08396014 0.6967085 -0.1646882 -1.36345 -0.715071 -0.35448778
0.6593641 0.8677041 0.09324273 0.20902608 0.1400607 0.19364017 0.13851374 -0.46705937
-0.4881322 -0.011895771 0.4482199 -0.0018458504 -0.6940743 0.17395839 -0.06088879 0.45161647
0.10353554 -0.6465465 -0.25201887 0.15474467 -0.12862562 0.05445435 0.21634397 0.0068877256
-0.0453901 -0.06356347 0.014784059 -0.03716803 0.36399138 -0.22761078 -0.061981827 0.6919941
-0.3213319 -0.88067126 -0.39713407 -0.062456816 0.052701443 -0.379143 -0.30490336 0.14579403
0.25026473 -0.54201365 -0.80546784 -0.09035221 -0.26573944 -0.46451125 -0.23219009 -0.07006135
-0.3304667 -0.13787517 0.15596105 0.24069528 -0.054571986 -0.22529098 -0.36508498 -0.2229681
0.28988135 -0.14330676 0.08339271 -0.48402897 0.34472358 0.4691748 0.33456296 -0.7428554
00000000: 5d1a 283e cfca 3b3e 2320 98be f78a fabd
00000010: 3b53 0cbf 71d2 91bd d918 eebd ee63 96be
00000020: 6a43 e3be c333 27bf 167f 52be d318 683e
00000030: 1670 1ebf 8293 ffbd b726 d03e c445 a4be
00000040: 9b7d 0abe bfaf 13bf 10ff 85be cd85 b6be
00000050: e567 e1be d513 2fbe e7ef 443e 3515 e33d
00000060: b4f8 683f a6a9 57be 1686 e23e ce7f 65bf
00000070: f1b3 bb3e 21cc 64bd 9091 c03c 3415 913e
00000080: 5733 ee3e 34a9 7cbe 9d25 253f 1ef7 c0be
00000090: b9ee 1c3f 7a93 02bf 1146 29bf 5445 833d
000000a0: e94a a8be 7a30 70bc 8290 66bf 2831 b6bf
000000b0: f182 ccbe 05b1 923e e4ce 273d a287 443f
000000c0: 00f6 90bc b4d6 6e3e a0f0 1ebe 70f2 7dbd
000000d0: bbee 62be 401d 96bc 52c6 f6be 5c17 843d
000000e0: b23b 443e ab22 d13e 9737 19bf 8555 943f
000000f0: d446 eebd 93db 83be 020d 123e df17 5d3e
00000100: 2b7a 613d 562c e43c 75fe c53e f491 95be
00000110: 662f 5b3d 0a49 9e3e ac02 99be 028d e3bd
00000120: a547 c4bd 4dcb cdbe 6d1c 7dbf 0b79 6dbe
00000130: 8a5c 81bf 818d 37bf 73e2 50be f2c2 3abe
00000140: e2e6 dabe 3e4f f93d b2f4 1eba 09a3 6f3e
00000150: d428 003f bc0f 07bf c6fa 2b3f cde1 a33e
00000160: 9938 77bd 0261 9bbd 1caa 24bc e43b dabe
00000170: eeb7 46be 2aac f9bd ef94 703e 70cf fdbe
00000180: 7c2a 243e b20e c1be a72a 2c3f c9f3 93be
00000190: 1952 c7be fcbb 40bf 04d7 2f3c e2ba e83e
000001a0: b14a f1be 4084 ea3e b313 fb3c 0e96 27bf
000001b0: 8c6a 9f3e 7111 9dbe 9824 cebd 2008 95bc
000001c0: 28cb 353e 43cd adbe 47c9 2ebe 3da0 5e3d
000001d0: 6972 e7be d0de 3dbe 80f2 233e d86d bdbd
000001e0: f693 543e 1443 c3bd 4bf3 ab3d 7d5b 323f
000001f0: 06a4 28be 8885 aebf e50e 37bf 6c7f b5be
00000200: 16cc 283f db21 5e3f 0bf6 be3d ef0a 563e
00000210: 126c 0f3e 9c49 463e 8cd6 0d3e 6822 efbe
00000220: 77ec f9be 7be6 42bc 147d e53e 76f0 f1ba
00000230: daae 31bf 2622 323e 8666 79bd 463a e73e
00000240: 710a d43d 1284 25bf 9e08 81be 6375 1e3e
00000250: 6fb6 03be 860b 5f3d 4689 5d3e 6eb2 e13b
00000260: f8ea 39bd 912d 82bd d638 723c 813d 18bd
00000270: 145d ba3e cd12 69be a8e0 7dbd 8626 313f
00000280: 9d85 a4be ac73 61bf 2855 cbbe b8d2 7fbd
00000290: 78dd 573d 081f c2be 4b1c 9cbe 084b 153e
000002a0: b322 803e 68c1 0abf 2433 4ebf 940a b9bd
000002b0: 000f 88be 6bd4 edbe 3dc3 6dbe 537c 8fbd
000002c0: ee32 a9be 262f 0dbe 41b4 1f3e d378 763e
000002d0: e086 5fbd aeb2 66be 6bec babe c051 64be
000002e0: 546b 943e 02bf 12be ccc9 aa3d a5d2 f7be
000002f0: 9c7f b03e ae37 f03e d64b ab3e c62b 3ebf

conv1.bias f4 [32]
-0.27592468 -0.025424832 0.03136645 -0.2698183 0.14154336 -0.40880626 0.5894827 -0.16437367
-0.19877808 -0.24299051 -0.43844002 -0.39582533 0.36079833 -0.29531035 -0.37041977 -0.030007413
0.3540142 0.16411695 -0.3203074 0.014193635 0.06889341 -0.18047246 -0.3962445 -0.07340463
-0.34161398 -0.2769309 0.3715245 -0.32041714 -0.05349773 -0.42277747 -0.30954677 0.09978685
00000000: 0046 8dbe bd47 d0bc 1b7a 003d a025 8abe
00000010: bef0 103e 0e4f d1be 57e8 163f 9251 28be
00000020: 7b8c 4bbe 81d2 78be 367b e0be 9ea9 cabe
00000030: 8fba b83e eb32 97be a9a7 bdbe 1bd2 f5bc
00000040: 5941 b53e 460e 283e 55ff a3be 6c8c 683c
00000050: fd17 8d3d c6cd 38be 8fe0 cabe 2b55 96bd
00000060: 07e8 aebe e3c9 8dbe 7638 be3e b70d a4be
00000070: 7020 5bbd 4a76 d8be ea7c 9ebe 0c5d cc3d

conv2.weight f4 [64, 32, 3]
-0.014128809 -0.0131439855 0.045678645 0.0132971285 -0.021318557 -0.03721888 -0.07248729 0.07504301
0.010663138 0.077257976 0.009785427 -0.0011046156 -0.13036779 -0.09170378 -0.051278483 0.009496709
-0.11927188 0.049328435 0.022704743 -0.02317185 -0.018365629 -0.09457787 -0.0581869 0.08172274
-0.055079814 -0.0017679259 0.01643724 -0.102190144 -0.09849016 -0.073958114 -0.053705994 0.059415102
-0.04835948 0.0040640566 0.047539864 -0.049759254 0.14568327 -0.008383868 0.08242845 0.08272387
-0.03917706 -0.06763479 -0.08763002 0.033807 0.025947047 -0.054255974 -0.018530954 0.026718946
-0.05345246 -0.1410877 -0.07463011 -0.09826445 -0.0360184 -0.0040702475 0.056927398 -0.085549936
0.00079734623 -0.07339831 -0.016276274 -0.010554581 0.03795779 0.04080741 -0.028479502 -0.10732963
-0.009923383 -0.039391458 -0.064782746 -0.03487744 -0.13639222 -0.089581415 -0.0009793058 -0.030547135
-0.09823242 -0.047684763 0.0029528304 -0.103058405 -0.089964174 -0.01861775 -0.07674317 -0.0003308349
-0.057848632 0.07359281 0.03803277 0.09632276 -0.019450756 -0.007504104 -0.09020351 0.06655814
-0.02858964 -0.00994861 0.03250979 0.028979063 -0.052382167 -0.10023138 -0.11902862 0.076137
-0.022540657 -0.21083742 -0.05874194 -0.1416589 -0.052911423 0.11491944 -0.1841709 -0.06501895
0.25177163 0.03547871 0.032918252 0.06873417 0.07625653 -0.1875578 -0.18363054 -0.3954023
-0.009965631 -0.055063073 -0.28670824 0.9479424 -0.2692165 -0.06218034 -0.07280211 0.43060577
-0.02960188 0.09787354 0.023498014 -0.24788404 -0.48381376 -0.30914763 -0.083935276 0.045187354
0.08557285 0.13101935 -0.13216074 0.012224081 0.82949626 1.1155162 1.0441649 0.18055774
0.0024721567 0.10367029 0.040017273 -0.44098213 -0.5640884 -0.10469282 -0.0021263203 0.006662325
-0.083013706 0.37322578 0.709497 0.2633482 -0.14179409 -0.25562647 -0.057505973 0.101196304
0.045989558 0.11235473 -0.37080887 0.010873675 -0.01527444 -0.09723273 -0.13940367 -0.33340758
-0.26748124 -0.25713786 -0.046621908 0.02121193 0.06538692 -0.5936511 -0.038711987 -0.13496758
-0.228166 -0.026310856 -0.06694751 -0.12480287 0.007320533 0.04327991 -0.35292536 0.1336808
-0.24157496 -0.040372334 -0.045292675 -0.08615418 -0.26148123 0.31270498 -0.031057727 0.0020716242
0.056657746 -0.05497127 -0.021289714 -0.09706674 0.04922816 -0.2285666 -0.0004445311 -0.16648063
0.012983948 0.098508224 0.016685128 -0.04643466 0.048955858 0.034002036 0.011071682 0.020227253
-0.043416128 0.07201086 -0.02345036 -0.018874824 -0.07262415 -0.012424916 -0.07192979 -0.068453126
0.061163783 -0.0853243 -0.0598499 -0.07228786 -0.09619572 -0.0018669516 -0.025526509 0.08849627
0.047705337 0.052645504 -0.08977326 -0.08411357 -0.0020972043 0.007164106 -0.030571133 -0.02436068
0.05757664 -0.090567224 0.059443027 0.028850213 -0.09709347 0.04567498 0.00261046 -0.047401283
-0.04813365 0.055159137 -0.08051339 0.034390002 0.02867426 0.09567079 0.058000132 0.08991571
-0.0053310543 0.04732825 0.08046287 -0.004442394 -0.09003326 -0.08482238 -0.0878879 0.024120688
-0.0010582134 0.074197516 -0.092994794 0.05448173 0.03214988 0.06428555 0.033113673 -0.012211472
00000000: 857c 67bc df59 57bc 8819 3b3d 33dc 593c
00000010: 41a4 aebc d372 18bd 3774 94bd 26b0 993d
00000020: 71b4 2e3c 6e39 9e3d 0e53 203c c0c8 90ba
00000030: 227f 05be 31cf bbbd 6309 52bd 1698 1b3c
00000040: d144 f4bd 9d0c 4a3d 4cff b93c e4d2 bdbc
00000050: 8473 96bc 0bb2 c1bd 6355 6ebd 405e a73d
00000060: 5f9b 61bd c0b9 e7ba 64a7 863c 1149 d1bd
00000070: 36b5 c9bd 5a77 97bd d1fa 5bbd 405d 733d
00000080: 9714 46bd c72b 853b 29b9 423d 5cd0 4bbd
00000090: ff2d 153e 7e5c 09bc 3fd0 a83d 226b a93d
000000a0: 2078 20bd 1c84 8abd 5e77 b3bd 3579 0a3d
000000b0: e78e d43c 833b 5ebd 3ace 97bc b1e1 da3c
000000c0: f7f0 5abd 4b79 10be acd7 98bd df3e c9bd
000000d0: 0888 13bd b65f 85bb b42c 693d ce34 afbd
000000e0: 0005 513a da51 96bd d255 85bc 1fed 2cbc
000000f0: a179 1b3d ac25 273d d84d e9bc a3cf dbbd
00000100: af95 22bc f058 21bd d1ac 84bd a6db 0ebd
00000110: 67aa 0bbe 7676 b7bd 0d5c 80ba fc3d fabc
00000120: 142e c9bd 1951 43bd 4684 413b 4910 d3bd
00000130: 233f b8bd 4084 98bc 862b 9dbd e973 adb9
00000140: b0f2 6cbd d4b7 963d 40c8 1b3d de44 c53d
00000150: 3157 9fbc fde4 f5bb 9ebc b8bd a24f 883d
00000160: d234 eabc 7fff 22bc fc28 053d 8065 ed3c
00000170: af8e 56bd 1c46 cdbd 47c5 f3bd b7ed 9b3d
00000180: 2fa7 b8bc c4e5 57be 639b 70bd 080f 11be
00000190: a6b9 58bd e25a eb3d 4c97 3cbe a828 85bd
000001a0: 36e8 803e 2052 113d 4ad5 063d 80c4 8c3d
000001b0: 622c 9c3d 270f 40be a509 3cbe 2c72 cabe
000001c0: e346 23bc d189 61bd 6ccb 92be 5aac 723f
000001d0: bfd6 89be d0b0 7ebd 4619 95bd 5c78 dc3e
000001e0: a47f f2bc ec71 c83d e87e c03c 50d5 7dbe
000001f0: 70b6 f7be 9948 9ebe 42e6 abbd 6016 393d
00000200: d240 af3d f029 063e 2555 07be 8347 483c
00000210: de59 543f 3cc9 8e3f 32a7 853f 21e4 383e
00000220: e803 223b 1751 d43d 27e9 233d 69c8 e1be
00000230: 1968 10bf 3069 d6bd bc59 0bbb a24f da3b
00000240: 1703 aabd 7317 bf3e 98a1 353f 93d5 863e
00000250: 7832 11be 79e1 82be 628b 6bbd 0240 cf3d
00000260: 8c5f 3c3d 3d1a e63d a9da bdbe 8027 323c
00000270: a541 7abc f421 c7bd d6bf 0ebe 66b4 aabe
00000280: 4df3 88be 93a7 83be 9df6 3ebd a4c4 ad3c
00000290: 94e9 853d 85f9 17bf 7690 1ebd f134 0abe
000002a0: 59a4 69be dd89 d7bc c71b 89bd a698 ffbd
000002b0: 15e1 ef3b 4646 313d a2b2 b4be 9fe3 083e
000002c0: 6d5f 77be 765d 25bd d084 39bd 9a71 b0bd
000002d0: dee0 85be de1a a03e c66c febc 16c4 073b
000002e0: f411 683d 8e29 61bd c467 aebc edca c6bd
000002f0: 78a3 493d 5d0d 6abe f40f e9b9 e679 2abe
00000300: a0ba 543c aebe c93d 40af 883c 4532 3ebd
00000310: f085 483d b845 0b3d 0066 353c a0b3 a53c
00000320: 1cd5 31bd 6e7a 933d f81a c0bc 609f 9abc
00000330: f8bb 94bd e091 4bbc ed4f 93bd 2731 8cbd
00000340: e086 7a3d 82be aebd 2b25 75bd a80b 94bd
00000350: 4302 c5bd 80b4 f4ba f81c d1bc 883d b53d
00000360: ac66 433d d0a2 573d 0bdb b7bd bc43 acbd
00000370: 4071 09bb e0c0 ea3b 5070 fabc 0c90 c7bc
00000380: 7cd5 6b3d 4f7b b9bd 887a 733d 4857 ec3c
00000390: f1d8 c6bd b015 3b3d 4014 2b3b d927 42bd
000003a0: ca27 45bd 8cee 613d 34e4 a4bd 88dc 0c3d
000003b0: 48e6 ea3c 0cef c33d 8c91 6d3d ba25 b83d
000003c0: 20b0 aebb 44db 413d b8c9 a43d 8091 91bb
000003d0: 5c63 b8bd 5bb7 adbd 92fe b3bd c098 c53c
000003e0: c0b3 8aba def4 973d 0e74 bebd 3c28 5f3d
000003f0: 98af 033d 24a8 833d 34a2 073d a012 48bc

conv2.bias f4 [64]
0.013793222 -0.18593632 -0.0789729 -0.120334245 -0.18582378 -0.11902493 -0.12571308 -0.060349107
-0.016654097 -0.0008623658 -0.15700622 -0.15142849 -0.010149814 -0.036760215 -0.19186504 -0.09712647
-0.039104152 -0.14766687 -0.035105962 0.008650307 -0.0620653 -0.06302007 -0.2200929 -0.06605541
0.03640389 -0.05204004 -0.14500974 -0.10333012 -0.110451 -0.166144 0.4412812 -0.12723128
-0.20755659 -0.1461375 0.0033679644 -0.077026494 -0.3245431 -0.15353125 -0.04070933 -0.04967533
0.023388524 -0.211374 -0.1739952 -0.06550232 -0.109775305 -0.0066376524 -0.13003898 -0.11609479
-0.11753774 0.044706486 -0.32295546 -0.044882994 -0.13054721 -0.07200473 -0.14824113 -0.11408951
-0.15576668 0.24654415 -0.17084408 -0.006281187 -0.06552546 -0.182093 -0.07528189 -0.16042243
00000000: f7fc 613c 1766 3ebe 8bbc a1bd cd71 f6bd
00000010: 9748 3ebe 58c3 f3bd eeba 00be a030 77bd
00000020: 2c6e 88bc 6410 62ba 3dc6 20be 1210 1bbe
00000030: 684b 26bc e191 16bd 4578 44be 3eea c6bd
00000040: ad2b 20bd fc35 17be 45cb 0fbd 04ba 0d3c
00000050: 2f38 7ebd ab10 81bd 0860 61be 0f48 87bd
00000060: 3f1c 153d f027 55bd 6f7d 14be be9e d3bd
00000070: 2234 e2bd a721 2abe 9cef e13e eb48 02be
00000080: b789 54be 12a5 15be 11b9 5c3b 11c0 9dbd
00000090: 832a a6be 4c37 1dbe d4be 26bd 5c78 4bbd
000000a0: 4a99 bf3c 6d72 58be cc2b 32be 1526 86bd
000000b0: e0d1 e0bd aa80 d9bb f028 05be 1bc3 edbd
000000c0: a0b7 f0bd 261e 373d 6b5a a5be 3bd7 37bd
000000d0: 2bae 05be 3777 93bd 86cc 17be c3a7 e9bd
000000e0: 4d81 1fbe 1276 7c3e c0f1 2ebe 6ad2 cdbb
000000f0: 3632 86bd 9676 3abe 642d 9abd c745 24be

conv3.weight f4 [128, 64, 3]
-0.055261407 -0.02543743 -0.025702715 -0.030636225 0.0023708418 0.021692164 0.0604811 0.0133106485
-0.024063423 0.056006 -0.004738547 -0.02958782 -0.1947262 -0.24191219 -0.18720803 0.08857716
-0.05949656 -0.04476586 -0.114999 0.0033428222 0.025101393 0.008681001 -0.00043509688 -0.017726392
-0.027232192 0.02980484 -0.015498724 -0.0198461 -0.04859632 -0.023217337 -0.0033474416 -0.0395968
0.057011515 0.03411194 -0.069664806 -0.031573333 -0.08934943 -0.08488863 -0.023425508 -0.018539926
-0.007487265 -0.04904569 -0.054002866 0.014706589 -0.051508635 -0.005827926 -0.027297653 0.025795959
-0.13352486 -0.099193834 -0.0098346025 -0.25893047 -0.24744679 -0.12906381 -0.06816471 0.04592248
-0.05276385 -0.05719853 -0.031328455 0.055275127 0.046221055 -0.033235565 -0.033284683 -0.010681605
-0.083747625 -0.021226713 -0.053629287 0.0018871725 -0.020271953 -0.01754826 0.040592864 -0.06118489
-0.021750513 0.021414101 0.104032755 -0.03548787 0.05877228 0.01805789 -0.10431485 -0.08771245
-0.08728394 0.06883256 0.012990624 0.03585071 -0.038830906 -0.011469118 0.09672505 0.0019770414
-0.028893933 -0.014748603 -0.10836185 -0.17371 -0.15910739 -0.10195881 -0.03102205 0.004679879
-0.044241987 -0.021318264 0.0029645935 0.026819259 0.044017546 0.049675047 -0.017974325 -0.04033959
-0.040875655 0.06532323 0.062035203 -0.0042137057 -0.0016417801 0.044996426 -0.06941536 0.056795955
0.039564185 -0.053329624 -0.0038093105 -0.048762377 -0.03186611 -0.041002057 0.04885774 0.041018575
-0.03259935 -0.0065196673 -0.031704646 0.05323656 0.051455073 -0.02794901 0.051540658 -0.010787308
0.008077644 -0.08518444 -0.12101336 -0.075684816 0.010875508 0.040183857 -0.006738916 -0.10294507
-0.16007942 -0.20524183 0.012931369 0.050216854 0.049423255 -0.089998 0.011058705 -0.12212507
0.06401871 -0.049649127 0.03268151 -0.035441104 -0.07110901 -0.07113778 0.0006265938 -0.015333824
-2.527982e-05 -0.08772078 -0.010680869 -0.052409735 0.0017850621 -0.0005629733 -0.03425463 -0.037398633
-0.06781463 -0.038272783 0.021924324 -0.014625654 0.02927421 0.01106656 -0.097017825 -0.0588028
0.00620675 0.037542768 0.04072179 -0.029121399 -0.051276326 0.038922526 0.022907302 -0.069929704
0.069007754 0.0192212 -0.06298356 -0.057731204 0.070077255 -0.06658847 0.0075249523 0.019921578
-0.078529745 -0.10114289 -0.03001485 -0.07180882 -0.07000526 0.009068854 0.011236399 0.061064556
0.025042422 -0.022210555 -0.029017292 -0.29992726 -0.22397438 -0.18388163 -0.03797797 -0.023584869
-0.005561754 0.011166151 0.0631427 0.121651016 -0.12555902 0.116302185 0.052476753 0.0019529242
-0.021874728 0.04059503 1.3674 -0.5892226 -0.123210706 -0.14093241 -0.07417218 0.10750432
-0.0073202564 0.05780323 -0.037245173 -0.043097615 -0.06578805 0.06989856 -0.014056329 -0.041506536
-0.055223465 -0.08755431 0.021028493 -0.004569872 -0.07758079 -0.081409596 -0.009636983 -0.04041543
0.0760887 0.011682705 -0.10536938 -0.044293415 -0.062342085 -0.06451039 0.036822964 -0.0073447903
-0.11975911 -0.028653955 0.0971713 -0.9761611 0.034365397 -0.8302446 0.12409835 0.059323505
0.056992885 -0.031188423 0.071951896 0.071099475 -0.0470355 0.049784023 0.024632387 0.007254561
00000000: c959 62bd 2862 d0bc 808e d2bc d2f8 fabc
00000010: 2060 1b3b c4b3 b13c 08bb 773d e814 5a3c
00000020: a820 c5bc 8c66 653d d045 9bbb 2862 f2bc
00000030: 4e66 47be d4b7 77be 76b3 3fbe f167 b53d
00000040: aab2 73bd 685c 37bd 9984 ebbd 4013 5b3b
00000050: 70a1 cd3c c23a 0e3c b71d e4b9 f036 91bc
00000060: 0c16 dfbc 4829 f43c 5cee 7dbc 4a94 a2bc
00000070: ef0c 47bd 4932 bebc c060 5bbb 4130 22bd
00000080: e884 693d f6b8 0b3d 6cac 8ebd 0a53 01bd
00000090: d5fc b6bd 17da adbd dae6 bfbc 0be1 97bc
000000a0: bb57 f5bb 22e4 48bd 1c32 5dbd e8f3 703c
000000b0: b8fa 52bd 30f8 bebb 549f dfbc 0c52 d33c
000000c0: beba 08be 2326 cbbd 5021 21bc 8992 84be
000000d0: b162 7dbe 4e29 04be f199 8bbd 3619 3c3d
000000e0: e81e 58bd 0149 6abd 4452 00bd 2c68 623d
000000f0: 4a52 3d3d 0422 08bd 8555 08bd e601 2fbc
00000100: e083 abbd a5e3 adbc 62aa 5bbd 005b f73a
00000110: 5e11 a6bc 5ec1 8fbc b444 263d 029d 7abd
00000120: 222e b2bc a06c af3c 200f d53d bb5b 11bd
00000130: 34bb 703d 24ee 933c 06a3 d5bd 96a2 b3bd
00000140: ecc1 b2bd 16f8 8c3d a0d6 543c 32d8 123d
00000150: 280d 1fbd f8e8 3bbc c817 c63d 4091 013b
00000160: f8b2 ecbc 20a4 71bc d1ec ddbd 09e1 31be
00000170: 0ced 22be c8cf d0bd f421 febc ac59 993b
00000180: 1637 35bd a4a3 aebc a049 423b 10b4 db3c
00000190: be4b 343d 1078 4b3d e43e 93bc 203b 25bd
000001a0: 3b6d 27bd 30c8 853d a018 7e3d 2013 8abb
000001b0: 0031 d7ba 2c4e 383d a429 8ebd e0a2 683d
000001c0: 0e0e 223d 2a70 5abd a0a5 79bb 0fbb 47bd
000001d0: 0a86 02bd c6f1 27bd 0e1f 483d 1803 283d
000001e0: e586 05bd efa2 d5bb bbdc 01bd 940e 5a3d
000001f0: 8ec2 523d 52f5 e4bc 4c1c 533d 40bd 30bc
00000200: 1858 043c 2e75 aebd dad5 f7bd a400 9bbd
00000210: 302f 323c d497 243d 20d2 dcbb ddd4 d2bd
00000220: dceb 23be ea2a 52be 18de 533c 30b0 4d3d
00000230: 0a70 4a3d df50 b8bd 922f 353c b51c fabd
00000240: 3e1c 833d e25c 4bbd 0cdd 053d b12a 11bd
00000250: 9aa1 91bd afb0 91bd 0042 243a b83a 7bbc
00000260: 0010 d4b7 f4a6 b3bd d0fe 2ebc 97ab 56bd
00000270: bff8 e93a 8094 13ba 954e 0cbd 4f2f 19bd
00000280: 66e2 8abd ecc3 1cbd a49a b33c 70a0 6fbc
00000290: 78d0 ef3c 8450 353c 48b1 c6bd 34db 70bd
000002a0: fe61 cb3b 72c6 193d e4cb 263d 0090 eebc
000002b0: 2007 52bd 3a6d 1f3d 18a8 bb3c 4e37 8fbd
000002c0: f053 8d3d c775 9d3c 86fd 80bd 8e77 6cbd
000002d0: aa84 8f3d 895f 88bd e093 f63b 9432 a33c
000002e0: 34d4 a0bd 0124 cfbd b4e1 f5bc 8110 93bd
000002f0: eb5e 8fbd 8895 143c e018 383c d41e 7a3d
00000300: c425 cd3c e9f2 b5bc acb5 edbc 1190 99be
00000310: 8a59 65be 774b 3cbe ca8e 1bbd 0e35 c1bc
00000320: 603f b6bb 3bf2 363c f650 813d 2b24 f93d
00000330: 8b92 00be d72f ee3d ddf1 563d 43f9 ff3a
00000340: a132 b3bc f946 263d f706 af3f 4bd7 16bf
00000350: e555 fcbd 9650 10be 95e7 97bd 3a2b dc3d
00000360: c3de efbb 14c3 6c3d 658e 18bd 2087 30bd
00000370: e3bb 86bd fa26 8f3d 844c 66bc c202 2abd
00000380: 0032 62bd ad4f b3bd f243 ac3c ddbe 95bb
00000390: ade2 9ebd 13ba a6bd 70e4 1dbc a68a 25bd
000003a0: 64d4 9b3d d168 3f3c e7cb d7bd 036d 35bd
000003b0: 6a5a 7fbd 061e 84bd add3 163d 91ac f0bb
000003c0: 4444 f5bd b3bb eabc bf01 c73d b2e5 79bf
000003d0: bbc2 0c3d e98a 54bf 4727 fe3d 34fd 723d
000003e0: 5f71 693d dd7e ffbc 845b 933d 9a9c 913d
000003f0: 4ca8 40bd 55ea 4b3d dcc9 c93c abb7 ed3b

conv3.bias f4 [128]
-0.27346712 0.21008244 -0.061234556 -0.16491808 -0.07856692 -0.08134003 -0.119802274 -0.04812274
-0.11836234 -0.026253412 -0.116690494 -0.16415454 -0.008907496 -0.40563 -0.24192066 -0.05182452
-0.05747113 -0.045270022 -0.1848297 -0.19623725 -0.09821697 -0.3111303 -0.10211412 -0.30251297
-0.029666707 -0.017390622 -0.028180225 -0.31972855 -0.17072988 -0.008875774 -0.18504685 -0.102106996
-0.28653798 -0.11631243 -0.14531377 -0.07891422 -0.050366174 -0.15501799 0.0089333 -0.03727189
-0.08635654 -0.09866089 -0.39004585 -0.112712994 -0.20408176 -0.078140594 -0.331142 -0.18318674
-0.077558815 -0.06192244 0.124563344 -0.3019878 -0.026353475 -0.07734925 -0.049778383 -0.053521104
-0.05147739 -0.0868376 -0.12144851 -0.08113082 -0.015063035 -0.143421 -0.3029466 -0.07664139
-0.008532375 -0.0795427 -0.0983718 -0.10476512 -0.16268209 -0.083916135 -0.24840528 -0.040788595
-0.11796495 -0.022195166 -0.04985173 -0.20148927 0.004349052 -0.09767811 -0.09250449 -0.039684568
-0.30807784 -0.18375108 -0.124190204 -0.54485536 -0.08826508 -0.050301433 -0.28198487 -0.08492693
-0.28729695 0.20626783 -0.14782502 -0.16440773 0.2854853 -0.022114234 -0.12173102 -0.13151157
-0.060351916 -0.044184636 -0.058508907 -0.029803058 0.20628324 -0.012110423 -0.05652475 -0.0609334
-0.08567999 -0.08668606 -0.091341056 -0.17793263 -0.507244 -0.022955842 -0.08566881 -0.026566196
0.0050953026 -0.084048174 -0.42195147 -0.009186479 0.12930769 -0.15980442 -0.09572353 -0.1714066
-0.1609749 -0.033294167 -0.05917975 -0.17217703 -0.04389328 -0.28436378 -0.15325831 -0.007845074
00000000: e203 8cbe da1f 573e 16d1 7abd 49e0 28be
00000010: b1e7 a0bd 9a95 a6bd e55a f5bd 5a1c 45bd
00000020: f467 f2bd 6511 d7bc 6dfb eebd 2118 28be
00000030: bff0 11bc bcae cfbe 0dba 77be f345 54bd
00000040: d966 6bbd 0f6d 39bd ff43 3dbe 6bf2 48be
00000050: fb25 c9bd 784c 9fbe 3521 d1bd fbe2 9abe
00000060: 9807 f3bc c776 8ebc 37da e6bc 76b3 a3be
00000070: d0d3 2ebe b26b 11bc ec7c 3dbe 791d d1bd
00000080: 1bb5 92be 3635 eebd 22cd 14be c79d a1bd
00000090: c34c 4ebd 09bd 1ebe fa5c 123c 69aa 18bd
000000a0: b3db b0bd b80e cabd 17b4 c7be 12d6 e6bd
000000b0: cffa 50be 2d08 a0bd 728b a9be 4e95 3bbe
000000c0: 28d7 9ebd 62a2 7dbd 111b ff3d 259e 9abe
000000d0: 3ee3 d7bc 4969 9ebd 6be4 4bbd f238 5bbd
000000e0: f5d9 52bd e9d7 b1bd ffb9 f8bd ea27 a6bd
000000f0: f3ca 76bc f4dc 12be d11b 9bbe 29f6 9cbd
00000100: 60cb 0bbc 48e7 a2bd 2777 c9bd 188f d6bd
00000110: 2296 26be 39dc abbd f45d 7ebe f111 27bd
00000120: 9c97 f1bd a3d2 b5bc 5431 4cbd 3453 4ebe
00000130: 7e82 8e3b 760b c8bd fe72 bdbd 498c 22bd
00000140: 61bc 9dbe 3e29 3cbe 6f57 febd a47b 0bbf
00000150: 52c4 b4bd e008 4ebd 5260 90be 2cee adbd
00000160: 9618 93be e037 533e 715f 17be 805a 28be
00000170: 212b 923e e928 b5bc 1d4e f9bd f8aa 06be
00000180: 9233 77bd f3fa 34bd 09a7 6fbd 8b25 f4bc
00000190: ea3b 533e cc6a 46bc 7f86 67bd 4d95 79bd
000001a0: fe78 afbd 7688 b1bd 0511 bbbd f933 36be
000001b0: beda 01bf e40d bcbc 2173 afbd 5aa1 d9bc
000001c0: 7ff6 a63b 7321 acbd 060a d8be e382 16bc
000001d0: 3c69 043e c5a3 23be b30a c4bd 3685 2fbe
000001e0: 9bd6 24be 775f 08bd 7766 72bd 2d4f 30be
000001f0: 71c9 33bd 2198 91be bfef 1cbe a088 00bc

fc1.weight f4 [256, 256]
0.03525452 -0.017401248 -0.008142693 -0.024396932 0.028273722 0.04760813 0.04932233 0.03911985
-0.04292806 0.052507874 -0.25968665 -0.029459747 -0.011332749 0.037916943 0.048269883 -0.015763892
0.009489812 0.06911325 0.02046723 0.11571478 0.06895511 0.023368744 -0.0043055187 0.034919612
-0.021781445 0.066155806 0.04623493 0.015501663 0.005099894 0.04027679 -0.038825814 0.008009422
0.043687508 -0.008288956 0.058263637 -0.07245184 0.060157556 -0.09699558 -0.2603696 -0.17988089
0.09143211 0.05069033 0.0075010085 -0.08884961 0.041038107 0.0810024 0.049076065 0.09641533
0.0706986 0.0006333882 -0.016957982 0.015050736 0.025817007 0.08599591 -0.011147855 -0.058794998
-0.053302795 0.03844246 0.05244206 0.0096925385 0.06599196 0.08142688 -0.16207731 -0.023287604
-0.13063537 -0.06294485 -0.059952695 0.011039635 -0.12083109 -0.13232766 -0.01919751 -0.024998559
0.03922967 0.080922194 0.034342863 0.0038976145 0.0021162299 0.04327974 0.051268708 -0.0013192504
0.10237097 0.09403345 -0.0009858137 0.091229044 0.059928898 -0.17241068 0.09192405 0.033808373
0.03589144 -0.08429814 0.063062236 -0.00060419366 -0.094737545 0.08433454 0.11867996 0.026963755
-0.049791165 0.027258422 0.02941976 0.090408385 -0.051983744 0.071511984 0.065865204 -0.018861346
0.052924868 0.03535944 0.08624488 0.121890925 0.012032184 0.03608518 -0.062006965 -0.03608662
-0.016647391 -0.045995086 0.06291426 0.023191443 0.04477967 0.06450513 0.058666606 0.034425817
-0.0020201223 0.107300855 0.047005028 0.12489009 -0.05997439 0.07596516 -0.06247846 -0.011476949
0.08558813 -0.04764743 0.008330263 0.121314235 -0.018756839 -0.015311388 0.074437104 -0.04980561
0.022121657 -0.36076704 0.02662258 0.04227194 -0.30615807 0.025268687 0.10983687 0.107390866
-0.0133019155 0.051673524 -0.037649605 0.057851568 0.057805732 0.019439122 -0.06703349 0.05513142
-0.08760494 -0.0077540497 -0.05036337 -0.007682259 -0.05042959 -0.030980268 0.046003375 0.022159446
0.09249076 -0.0012755193 0.040047932 0.06387084 0.105942406 0.060479134 0.1035139 -0.013702948
-0.03849569 0.06406749 0.0014844796 -0.0057476554 -0.002855651 -0.017044112 0.09886241 0.113483466
-0.3557808 -0.056157265 0.012193825 -0.036712892 -0.014496791 0.027080063 -0.06383166 0.087667875
-0.054269318 0.043196537 -0.09570879 -0.144486 0.040847998 0.066428415 0.039525885 0.07216929
-0.027629808 0.033904947 0.07266454 -0.022503227 0.014637641 0.060347643 0.070482366 0.08365334
-0.15806006 -0.10777047 0.03542681 0.015400456 0.011145885 0.09882825 0.011549317 0.035823043
0.108736575 0.04967892 -0.0027409948 0.027472226 0.008977911 -0.015030293 0.08712212 0.035110872
-0.0116604455 0.09718046 0.041665826 0.01355513 0.04729603 0.013107404 -0.021048898 0.1629976
0.06202907 -0.09121271 0.0051717428 0.05449417 0.086024314 0.0928671 0.04789692 -0.027166905
-0.5991304 -0.1555515 0.07410622 0.1161474 -0.01930119 0.08582694 0.060397632 0.015704865
0.0744764 -0.0018971516 0.0015137121 0.000925396 0.08669213 0.055336636 0.07456484 0.02968068
0.035294402 -0.026171632 -0.055266738 0.04025051 -0.04590914 0.061078187 -0.0007628317 0.0012841097
00000000: 0b67 103d 108d 8ebc ee68 05bc 13dc c7bc
00000010: 4b9e e73c be00 433d 3606 4a3d 233c 203d
00000020: 55d5 2fbd 7f12 573d a6f5 84be 9155 f1bc
00000030: ffac 39bc cc4e 1b3d a4b6 453d 4723 81bc
00000040: 287b 1b3c 3f8b 8d3d e4aa a73c dffb ec3d
00000050: 5638 8d3d cf6f bf3c 4f15 8dbb de07 0f3d
00000060: 006f b2bc b27c 873d d760 3d3d b0fa 7d3c
00000070: 031d a73b 46f9 243d d107 1fbd f339 033c
00000080: acf1 323d 67ce 07bc daa5 6e3d a161 94bd
00000090: c567 763d 9ea5 c6bd 2a4f 85be b232 38be
000000a0: c240 bb3d aaa0 4f3d 05cb f53b c9f6 b5bd
000000b0: 9317 283d 96e4 a53d fc03 493d 6775 c53d
000000c0: 6dca 903d f609 263a 77eb 8abc 5d97 763c
000000d0: 307e d33c a01e b03d 7ea5 36bc 06d3 70bd
000000e0: 0854 5abd d775 1d3d 7ccd 563d 74cd 1e3c
000000f0: cb26 873d 23c3 a63d 98f7 25be a5c5 bebc
00000100: 47c5 05be 3be9 80bd f590 75bd 96df 343c
00000110: 4a76 f7bd e780 07be 1944 9dbc c7c9 ccbc
00000120: 4aaf 203d 89ba a53d 1aab 0c3d 1f6f 7f3b
00000130: 72b0 0a3b 1946 313d 23ff 513d b3ea acba
00000140: dfa7 d13d 9c94 c03d 6b36 81ba 4bd6 ba3d
00000150: 0178 753d 6d8c 30be ad42 bc3d a67a 0a3d
00000160: e702 133d 81a4 acbd c626 813d c062 1eba
00000170: c205 c2bd 96b7 ac3d 7b0e f33d 18e3 dc3c
00000180: d2f1 4bbd 0e4d df3c b501 f13c 0828 b93d
00000190: e8ec 54bd e074 923d 56e4 863d 1c83 9abc
000001a0: bfc7 583d 0fd5 103d 28a1 b03d f3a1 f93d
000001b0: a322 453c 0ece 133d 04fb 7dbd 90cf 13bd
000001c0: 1c60 88bc 5865 3cbd 31d9 803d fbfb bd3c
000001d0: e36a 373d 441b 843d 654c 703d 1602 0d3d
000001e0: 0764 04bb 8dc0 db3d 5888 403d 60c6 ff3d
000001f0: b5a7 75bd 9f93 9b3d 6ae9 7fbd d009 3cbc
00000200: d448 af3d f429 43bd a87b 083c 9973 f83d
00000210: f1a7 99bc 9edc 7abc 7b72 983d f800 4cbd
00000220: 7a38 b53c 75b6 b8be 9917 da3c 5725 2d3d
00000230: c0c0 9cbe 4700 cf3c 27f2 e03d beef db3d
00000240: 47f0 59bc 9ea7 533d 7936 1abd c4f5 6c3d
00000250: b4c5 6c3d cb3e 9f3c db48 89bd 7cd1 613d
00000260: 386a b3bd af15 febb d249 4ebd 76bb fbbb
00000270: 428f 4ebd 55ca fdbc 096e 3c3d ba87 b53c
00000280: cc6b bd3d 532f a7ba 4d09 243d b7ce 823d
00000290: 55f8 d83d f8b8 773d 18ff d33d 5482 60bc
000002a0: a8ad 1dbd d135 833d df92 c23a d456 bcbb
000002b0: e025 3bbb 18a0 8bbc 6078 ca3d 056a e83d
000002c0: e728 b6be 2905 66bd 9cc8 473c 4260 16bd
000002d0: f383 6dbc 02d7 dd3c 2cba 82bd 378b b33d
000002e0: 8149 5ebd daee 303d f802 c4bd 23f4 13be
000002f0: 3b50 273d 9f0b 883d e5e5 213d 7ecd 933d
00000300: e857 e2bc eadf 0a3d 25d1 943d b058 b8bc
00000310: b7d2 6f3c 172f 773d 0f59 903d 7152 ab3d
00000320: 7fda 21be c4b6 dcbd b41b 113d 3252 7c3c
00000330: 3b9d 363c 7766 ca3d 5939 3d3c 2fbb 123d
00000340: 48b1 de3d 207c 4b3d 43a2 33bb 6f0d e13c
00000350: 1718 133c 9e41 76bc 156d b23d 6bd0 0f3d
00000360: 740b 3fbc 8d06 c73d c9a9 2a3d 5616 5e3c
00000370: 7bb9 413d 70c0 563c bd6e acbc d8e8 263e
00000380: 3212 7e3d bbcd babd b977 a93b 4735 5f3d
00000390: 842d b03d 1b31 be3d 902f 443d 218d debc
000003a0: 9c60 19bf e448 1fbe 00c5 973d b0de ed3d
000003b0: 871d 9ebc 09c6 af3d 8263 773d 7da7 803c
000003c0: 1587 983d d8a9 f8ba c067 c63a 4696 723a
000003d0: a58b b13d aba8 623d 73b5 983d e624 f33c
000003e0: dd90 103d e465 d6bc 605f 62bd b8dd 243d
000003f0: 390b 3cbd 1f2d 7a3d c5f8 47ba 924f a83a

fc1.bias f4 [256]
0.043815553 -0.09171607 -0.059049092 0.08783593 -0.14232361 -0.021396885 -0.022901807 5.6291203e-05
0.09807755 -0.1228229 -0.08637268 -0.03533108 -0.17485407 0.08920571 0.0046261707 -0.09453481
0.2580411 -0.041215707 -0.13664848 -0.072050095 -0.047405828 -0.083964825 0.14111733 -0.08080561
-0.12851813 0.03138532 -0.10936683 -0.19025771 -0.024322947 -0.016892847 -0.21901484 0.20964961
0.29314566 -0.7785765 0.055243913 -0.053683937 -0.10079002 -0.25010464 -0.10431541 0.25937247
-0.104357235 0.14341894 -0.108970165 -0.088198684 -0.15762243 0.056664996 -0.027680472 0.45473993
-0.059367422 -0.014563686 -0.08334548 0.14933127 -0.07520814 -0.04058315 0.16506828 -0.07773278
-0.02795535 -0.06846034 -0.041758977 0.078355 -0.102010444 0.10465429 0.06283766 -0.06900379
-0.020315336 -0.012326805 0.20216122 0.31769437 -0.0040674065 0.37471604 0.0086668255 -0.31972829
-0.097804315 0.08615629 -0.102553196 -0.3571204 0.36678886 -0.07217006 0.025297947 -0.023436574
-0.057100557 0.42244393 -0.10098204 -0.09013727 -0.1346763 -0.06656811 -0.17403282 -0.034569368
-0.15928535 0.3594791 -0.2530658 -0.09957906 -0.046526447 -0.022076001 -0.0057866666 -0.24231662
0.03319256 -0.13584669 0.19836119 -0.16697665 -0.033095453 -0.1724915 -0.13347712 -0.0936241
-0.008612673 -0.12209647 0.17237681 -0.006601135 0.058995355 -0.14473273 -0.052323453 0.012676153
-0.042100444 0.2592453 -0.066613615 0.113469325 -0.15469098 0.25306287 0.03014788 -0.017431833
0.032661624 -0.11398572 -0.0246662 -0.22570708 -0.29793048 0.46989056 -0.014552435 -0.18359874
-0.08250396 -0.095531955 0.10420553 -0.083947845 0.29867947 -0.28013507 -0.10579071 -0.043669473
-0.08747576 -0.113641314 0.013793164 -0.10273855 -0.013337726 -0.103156626 -0.07912139 -0.24171802
-0.1338046 0.3339067 -0.09045777 -0.10624873 -0.0030062417 0.18080112 -0.15105689 0.7410951
0.6662604 -0.020693995 -0.093969405 0.43710044 -0.18958277 -0.082564 0.37739655 -0.2767234
-0.050315894 -0.082416564 0.1071151 -0.004574091 -0.17794652 -0.0131701715 -0.11747312 -0.16873272
-0.044473473 -0.10371925 -0.07845362 -0.040855177 -0.17076162 0.0926576 -0.025913993 -0.13997984
-0.09508387 -0.18704407 -0.21074863 0.15497337 -0.2976967 -0.0554594 -0.1174473 -0.21754697
0.1341865 -0.017504506 0.13153616 0.1284932 0.0700919 -0.0845627 -0.027023004 0.13391416
-0.13891208 -0.1422458 -0.10388126 0.047973476 -0.09834069 -0.17730813 0.25091198 -0.21871527
-0.09891208 -0.0601882 0.07077456 0.15618855 -0.20131285 -0.1399574 0.19291201 -0.18732107
-0.055664383 -0.057228144 -0.071085125 -0.048844665 0.5157705 -0.21281962 -0.23095235 -0.12104312
-0.08658645 -0.21942148 -0.055008024 -0.058730517 -0.11013402 -0.20167753 -0.07877368 -0.17250568
-0.20779301 -0.29809776 0.57631946 0.20971541 -0.08549142 -0.0276976 0.2386457 -0.16371863
0.2878229 0.467653 -0.032069806 -0.046185624 0.008165792 -0.15190776 0.18125473 0.015688999
-0.020064091 -0.11797886 -0.13471736 -0.21865192 -0.02036731 -0.04780917 -0.007656092 0.13647003
-0.053893313 -0.19862011 -0.0064928257 -0.40222198 -0.11533353 0.017500792 -0.049353696 0.38869542
00000000: f077 333d a3d5 bbbd 76dd 71bd 53e3 b33d
00000010: 48bd 11be 8548 afbc 929c bbbc 381a 6c38
00000020: e2dc c83d 938a fbbd 29e4 b0bd 53b7 10bd
00000030: f20c 33be 7cb1 b63d 2297 973b 779b c1bd
00000040: f71d 843e cdd1 28bd 94ed 0bbe 008f 93bd
00000050: 9d2c 42bd c0f5 abbd 1081 103e 697d a5bd
00000060: 429a 03be e58d 003d b7fb dfbd ebd2 42be
00000070: eb40 c7bc de62 8abc 6d45 60be 63ae 563e
00000080: 3017 963e ca50 47bf 7147 623d b0e3 5bbd
00000090: ff6a cebd b70d 80be 51a3 d5bd 78cc 843e
000000a0: 3fb9 d5bd 6adc 123e c02b dfbd 83a1 b4bd
000000b0: c667 21be 8e19 683d 28c2 e2bc acd3 e83e
000000c0: 412b 73bd 879c 6ebc 09b1 aabd 4cea 183e
000000d0: ba06 9abd 843a 26bd a907 293e 5d32 9fbd
000000e0: 9e02 e5bc ef34 8cbd 760b 2bbd 9678 a03d
000000f0: daea d0bd fd54 d63d 08b1 803d dc51 8dbd
00000100: 596c a6bc 5ef6 49bc 5a03 4f3e d6a8 a23e
00000110: e147 85bb c8da bf3e 4dff 0d3c 6db3 a3be
00000120: a14d c8bd b572 b03d 6907 d2bd 7cd8 b6be
00000130: c0cb bb3e e5cd 93bd a43d cf3c 0ffe bfbc
00000140: 46e2 69bd 924a d83e accf cebd e499 b8bd
00000150: 96e8 09be dc54 88bd a935 32be 9c98 0dbd
00000160: b31b 23be a50d b83e d791 81be 1bf0 cbbd
00000170: 8492 3ebd bbd8 b4bc 149e bdbb d921 78be
00000180: ecf4 073d 651b 0bbe 321f 4b3e edfb 2abe
00000190: 198f 07bd 9da1 30be 3aae 08be febd bfbd
000001a0: 2b1c 0dbc b70d fabd 8c83 303e 554e d8bb
000001b0: 1da5 713d d134 14be 1e51 56bd a4af 4f3c
000001c0: 8471 2cbd cdbb 843e b86c 88bd 9b62 e83d
000001d0: 5067 1ebe 7591 813e b0f8 f63c 34cd 8ebc
000001e0: 32c8 053d 5871 e9bd c510 cabc c21f 67be
000001f0: 588a 98be 7f95 f03e 566d 6ebc 4f01 3cbe
00000200: d6f7 a8bd 42a6 c3bd b569 d53d d9ec abbd
00000210: 84ec 983e dd6d 8fbe cda8 d8bd c3de 32bd
00000220: 7e26 b3bd c7bc e8bd b9fc 613c 9768 d2bd
00000230: 7a86 5abc c843 d3bd 650a a2bd ee84 77be
00000240: 1304 09be d2f5 aa3e ec41 b9bd ef98 d9bd
00000250: 5e04 45bb ee23 393e a8ae 1abe 69b8 3d3f
00000260: 0b90 2a3f 7486 a9bc 0873 c0bd a1cb df3e
00000270: fc21 42be 5017 a9bd 1f3a c13e b1ae 8dbe
00000280: 0a18 4ebd 04ca a8bd 295f db3d 42e2 95bb
00000290: 9d37 36be b4c7 57bc bf95 f0bd 45c8 2cbe
000002a0: d129 36bd c26a d4bd 4bac a0bd c257 27bd
000002b0: 22dc 2ebe 45c3 bd3d 9549 d4bc e056 0fbe
000002c0: 55bb c2bd 7b88 3fbe 7dce 57be 57b1 1e3e
000002d0: b46b 98be 6529 63bd 3688 f0bd a2c4 5ebe
000002e0: 3068 093e 9c65 8fbc 6ab1 063e b993 033e
000002f0: 588c 8f3d 352f adbd 595f ddbc cb20 093e
00000300: f83e 0ebe e2a8 11be b3bf d4bd d67f 443d
00000310: d866 c9bd 4390 35be 8977 803e e5f6 5fbe
00000320: 6b92 cabd e787 76bd 41f2 903d e4ef 1f3e
00000330: f524 4ebe fe50 0fbe ba8a 453e 18d1 3fbe
00000340: 5600 64bd 0f68 6abd 1495 91bd 5811 48bd
00000350: 8909 043f 63ed 59be c67e 6cbe 75e5 f7bd
00000360: 3d54 b1bd 06b0 60be 1850 61bd 698f 70bd
00000370: f28d e1bd 8e84 4ebe 1854 a1bd 54a5 30be
00000380: b1c7 54be 45a0 98be ac89 133f a3bf 563e
00000390: 2016 afbd 14e6 e2bc 8a5f 743e dba5 27be
000003a0: 865d 933e 3770 ef3e a15b 03bd 232d 3dbd
000003b0: d0c9 053c b58d 1bbe d79a 393e 3786 803c
000003c0: 735d a4bc e79e f1bd 59f3 09be 4ae6 5fbe
000003d0: 58d9 a6bc 8cd3 43bd f4df fabb cdbe 0b3e
000003e0: 3cbf 5cbd 1263 4bbe c5c1 d4bb 0af0 cdbe
000003f0: fc33 ecbd d25d 8f3c 1a27 4abd 1603 c73e

fc2.weight f4 [128, 256]
0.04986161 -0.0011396101 0.037235696 -0.26842967 -0.04533491 0.041060075 0.11106522 0.08215141
0.07582359 -0.0927204 0.10323785 0.102697425 -0.18187614 0.012077958 0.035493154 0.052554283
-0.13129736 -0.08883272 -0.10765598 0.028516764 -0.008988383 0.02636831 -0.38856456 0.021219725
-0.112718515 0.16861904 0.103005156 -0.11212873 0.06863562 -0.0016524859 -0.81662655 -0.0028679695
-0.6351335 0.21712373 0.14323759 0.11683958 -0.0048788106 -0.024955817 0.0073324204 -0.04273254
-0.025653815 0.018329697 -0.024620343 0.046096794 0.049128726 0.37247503 0.020433517 0.1576315
0.077154726 0.084926 0.040163755 0.15529461 0.088405654 -0.00018938456 0.12508838 0.004842495
-0.00089691737 -0.035814766 0.013184674 0.10515114 -0.38083366 0.04857347 0.03698833 -0.09545152
0.058552165 0.03780962 -0.028904075 -0.16607389 0.033401456 0.04342096 0.13099585 0.07286471
0.01847302 0.059822347 0.053006973 -0.10103422 -0.052620932 0.10962953 0.074794985 0.019674387
0.026396975 -0.046541777 0.02685584 0.039696243 0.030518902 0.11574902 -0.13876094 0.063267
-0.10822545 -0.010624059 0.08261022 0.0028690146 0.039537515 -0.07515235 0.06589213 -0.011702124
0.05729504 0.028882293 -0.105649464 -0.042076148 0.04149319 0.062154837 -0.04598867 -0.112761825
0.0037611516 0.1596348 -0.19349888 0.11584618 0.07659614 0.03722147 0.06834978 0.0407853
0.09738975 0.098052435 0.11673068 0.0533796 -0.1056837 -0.31266153 -0.055244382 0.0035361636
-0.08126619 0.03620161 0.08255092 0.46191174 0.06027495 0.1219046 0.05976685 0.10505081
0.0150071485 0.067129724 -0.100661054 0.03153181 -0.05997136 -0.2893375 0.050865375 0.058564026
0.06622462 0.107982546 -0.29258338 0.08542639 0.03996575 0.007992045 0.022344075 0.10315331
0.07110276 -0.5530776 0.06163625 -0.04283207 0.06987932 0.08016938 -0.0391001 0.2646863
0.5078388 0.03819053 0.012702957 0.020315971 -0.047302768 -0.028436104 -0.25011 -0.071229324
0.08975264 -0.008608076 0.006053523 0.006995781 0.104963675 0.012839841 -0.056792807 -0.0037989805
-0.0010952426 -0.053029213 -0.013568106 -0.018003609 0.026373593 0.015635341 0.014798595 -0.1046192
-0.023016531 -0.08959663 -0.009789775 0.15362006 -0.15473218 0.051329628 0.056932934 0.021266326
0.033732478 0.00040727854 -0.14595987 -0.064851105 0.104445145 0.07932752 0.058546867 0.0022431472
-0.1622432 0.11690359 0.011418003 0.0055001583 0.044965837 -0.10795057 0.13902774 0.0437366
-0.055591732 0.01141048 -0.027874094 0.031688783 0.10485432 0.06313677 0.10166689 -0.16990244
0.04016046 0.105044104 0.016356552 0.08708838 0.0055118473 -0.1818586 0.109233275 0.032826073
0.02356872 -0.067682765 -0.0054580756 0.05512028 0.024365878 -0.09724142 0.087941475 -0.08358027
-0.05125514 -0.029899273 0.14954677 -0.10469962 0.078309596 0.11111633 -0.06994126 -0.06359628
0.01970166 0.22347268 0.039044723 0.018082103 0.12103552 0.09387738 -0.08473069 0.053420696
0.09638662 0.09650072 0.052538123 -0.0986749 0.12036122 0.11344838 0.104627386 -0.10827737
0.0040227817 0.087812334 0.0954518 -0.19639458 -0.05385471 0.057002492 0.10703695 -0.006826164
00000000: b03b 4c3d f85e 95ba 7584 183d 9d6f 89be
00000010: 19b1 39bd 9c2e 283d 2976 e33d 003f a83d
00000020: 6649 9b3d 31e4 bdbd 5e6e d33d 0753 d23d
00000030: bd3d 3abe a1e2 453c 4561 113d 2943 573d
00000040: d172 06be eeed b5bd bd7a dcbd fd9b e93c
00000050: 0344 13bc 5b02 d83c eff1 c6be fdd4 ad3c
00000060: f7d8 e6bd 78aa 2c3e 5ef4 d23d bfa3 e5bd
00000070: d590 8c3d 3a98 d8ba 700e 51bf 8bf4 3bbb
00000080: 1c98 22bf af55 5e3e e0ac 123e 9749 ef3d
00000090: 6ede 9fbb 2470 ccbc cd44 f03b 5108 2fbd
000000a0: f327 d2bc 2928 963c 9ab0 c9bc fecf 3c3d
000000b0: 343b 493d 0cb5 be3e 3164 a73c 276a 213e
000000c0: 4c03 9e3d afed ad3d c082 243d 8d05 1f3e
000000d0: 060e b53d 8895 46b9 2b17 003e cbad 9e3b
000000e0: 1b1f 6bba 81b2 12bd 8804 583c 7b59 d73d
000000f0: a1fc c2be faf4 463d 1381 173d 167c c3bd
00000100: 65d4 6f3d 43de 1a3d 3dc8 ecbc 460f 2abe
00000110: f7cf 083d 2dda 313d c723 063e 183a 953d
00000120: bb54 973c 4708 753d d71d 593d 07eb cebd
00000130: 0c89 57bd 7285 e03d 1d2e 993d 2e2c a13c
00000140: 783e d83c 97a2 3ebd c700 dc3c 8798 223d
00000150: c702 fa3c d20d ed3d 5917 0ebe 2192 813d
00000160: 4ea5 ddbd 8810 2ebc 8c2f a93d 1406 3c3b
00000170: 17f2 213d 7ae9 99bd 74f2 863d 44ba 3fbc
00000180: 34ae 6a3d 8f9a ec3c bf5e d8bd 0a58 2cbd
00000190: c3f4 293d 1296 7e3d 9e5e 3cbd acef e6bd
000001a0: a77d 763b 4e77 233e 9224 46be c340 ed3d
000001b0: 70de 9c3d 8a75 183d f8fa 8b3d 7d0e 273d
000001c0: 4774 c73d b7cf c83d 7f10 ef3d 91a4 5a3d
000001d0: b270 d8bd 2c15 a0be ef47 62bd fbbe 673b
000001e0: e36e a6bd 2448 143d 7510 a93d b27f ec3e
000001f0: dee2 763d 1ea9 f93d 16ce 743d e124 d73d
00000200: 8be0 753c 4f7b 893d 6227 cebd 8027 013d
00000210: 87a4 75bd 0b24 94be 3658 503d d5e0 6f3d
00000220: c6a0 873d f425 dd3d 7dcd 95be 08f4 ae3d
00000230: 20b3 233d 11f1 023c ec0a b73c 0b42 d33d
00000240: 539e 913d 7e96 0dbf 4b76 7c3d ae70 2fbd
00000250: e41c 8f3d d82f a43d 6d27 20bd f684 873e
00000260: b901 023f ac6d 1c3d 1020 503c ae6d a63c
00000270: 8cc0 41bd d5f2 e8bc 6b0e 80be aee0 91bd
00000280: 3bd0 b73d e308 0dbc a25c c63b dd3c e53b
00000290: 32f7 d63d 325e 523c 939f 68bd 51f8 78bb
000002a0: 3e8e 8fba 2935 59bd c34c 5ebc 4e7c 93bc
000002b0: 6f0d d83c b015 803c ce75 723c 9742 d6bd
000002c0: 2a8d bcbc 707e b7bd 4b65 20bc 944e 1d3e
000002d0: 1d72 1ebe 043f 523d 8232 693d b836 ae3c
000002e0: 112b 0a3d 0088 d539 8176 15be a8d0 84bd
000002f0: 56e7 d53d 7876 a23d d7ce 6f3d c401 133b
00000300: 1523 26be 266b ef3d 9312 3b3c ac3a b43b
00000310: 192e 383d 3015 ddbd 4a5d 0e3e 2625 333d
00000320: 28b4 63bd 06f3 3a3c 3658 e4bc 19cc 013d
00000330: ddbd d63d da4d 813d bb36 d03d e8fa 2dbe
00000340: 4b7f 243d 5d21 d73d 2dfe 853c 645b b23d
00000350: ba9c b43b 2439 3abe b2b5 df3d a274 063d
00000360: 3013 c13c 439d 8abd a8d9 b2bb cdc5 613d
00000370: f39a c73c 8226 c7bd a91a b43d 222c abbd
00000380: e9f0 51bd 52ef f4bc ca22 193e c16c d6bd
00000390: c860 a03d f590 e33d 5d3d 8fbd c43e 82bd
000003a0: 6065 a13c 06d6 643e 5ced 1f3d eb20 943c
000003b0: 79e1 f73d c942 c03d 4987 adbd a9cf 5a3d
000003c0: 5966 c53d 2ba2 c53d 3732 573d 1116 cabd
000003d0: f17f f63d a057 e83d e246 d63d 87c0 ddbd
000003e0: 8ad1 833b f4d6 b33d 3c7c c33d a91b 49be
000003f0: c296 5cbd 727b 693d 3036 db3d 04ae dfbb

fc2.bias f4 [128]
0.42212272 -0.072714366 -0.027255598 0.4247126 -0.050314352 -0.030818265 -0.06688424 -0.11890565
-0.2346518 -0.3700488 -0.08678946 -0.06717576 -0.2318892 -0.018336805 0.350859 -0.05386023
-0.00032534357 -0.34614497 -0.29680455 -0.040031888 0.5414225 0.32271937 -0.19670494 -0.066367194
0.17720014 -0.12091826 0.6287184 0.08120381 -0.5349432 -0.42609552 -0.047119353 -0.06611589
0.19162913 0.015892634 -0.010674534 -0.10981286 -0.24942511 -0.15197466 -0.2691121 0.23180944
-0.014233013 -0.11392599 -0.035856396 -0.18157429 0.32645062 -0.4726035 -0.26471412 0.3322648
-0.25549424 0.6652074 -0.21044526 -0.09924127 -0.12663645 0.027248215 -0.29152343 -0.32497767
0.43986714 -0.20613031 -0.14836001 -0.17382918 -0.13637264 -0.02702401 -0.3390708 -0.054197542
0.0994144 0.56099415 -0.3809766 -0.13441971 -0.15279968 0.28243798 0.11436007 -0.047517966
0.04258766 -0.18767612 -0.19154863 -0.0020525388 -0.03109283 -0.09992704 0.33459434 -0.0037730946
0.9284096 -0.26313555 -0.00825263 0.49772424 0.14164376 0.32777196 -0.2570915 -0.23522131
-0.06752085 -0.5756076 -0.15852529 0.28654912 -0.08922719 -0.09331448 -0.09573379 -0.4456269
-0.07438768 0.3726843 -0.38922283 0.039594617 -0.3172207 -0.047483455 -0.3138509 -0.015294707
-0.25925952 -0.40188622 0.14745876 -0.09750895 0.45365036 -0.23119685 -0.1297331 -0.0978397
-0.41780648 0.5434108 -0.12355805 -0.19192138 0.46035802 -0.063366115 -0.14826687 -0.17822649
0.11831314 0.11299876 -0.04102818 -0.05032471 -0.2111711 -0.08301163 0.26702845 -0.08541355
00000000: 7820 d83e 45eb 94bd 2247 dfbc ee73 d93e
00000010: 6c16 4ebd 9676 fcbc 9bfa 88bd ce84 f3bd
00000020: 9048 70be 0977 bdbe acbe b1bd 7293 89bd
00000030: 5d74 6dbe 1137 96bc caa3 b33e 8b9c 5cbd
00000040: e092 aab9 ea39 b1be c4f6 97be 7af8 23bd
00000050: aa9a 0a3f 793b a53e 056d 49be 86eb 87bd
00000060: f473 353e fea3 f7bd b0f3 203f 2f4e a63d
00000070: 0af2 08bf 3129 dabe 3900 41bd c567 87bd
00000080: 6d3a 443e 4531 823c 3ee4 2ebc 91e5 e0bd
00000090: 4c69 7fbe 3f9f 1bbe 10c9 89be 745f 6d3e
000000a0: 9531 69bc 0852 e9bd 28de 12bd 9cee 39be
000000b0: 8924 a73e 16f9 f1be 9c88 87be 9d1e aa3e
000000c0: 24d0 82be 084b 2a3f f67e 57be 023f cbbd
000000d0: fcac 01be a637 df3c 8f42 95be 7963 a6be
000000e0: 4436 e13e d313 53be b0eb 17be 4700 32be
000000f0: 45a5 0bbe 7561 ddbc b09a adbe 3efe 5dbd
00000100: c799 cb3d 509d 0f3f 5d0f c3be 52a5 09be
00000110: 8577 1cbe b69b 903e 9d35 ea3d 33a2 42bd
00000120: 6670 2e3d 2b2e 40be 5325 44be e383 06bb
00000130: 64b6 febc 8ca6 ccbd f34f ab3e 0646 77bb
00000140: 40ac 6d3f b4b9 86be 0a36 07bc b6d5 fe3e
00000150: 100b 113e bad1 a73e 7fa1 83be dbdd 70be
00000160: 5f48 8abd 055b 13bf 7454 22be 91b6 923e
00000170: bfbc b6bd a91b bfbd 1410 c4bd 3629 e4be
00000180: 9158 98bd 7ad0 be3e 3748 c7be f72d 223d
00000190: c06a a2be 037e 42bd 11b1 a0be a796 7abc
000001a0: aabd 84be 08c4 cdbe 6eff 163e c6b2 c7bd
000001b0: dc44 e83e debe 6cbe c1d8 04be 2e60 c8bd
000001c0: bbea d5be f81c 0b3f 010c fdbd 0a87 44be
000001d0: 0cb4 eb3e 18c6 81bd 45d3 17be 0181 36be
000001e0: 294e f23d e56b e73d 2a0d 28bd 4821 4ebd
000001f0: 3d3d 58be 0002 aabd f4b7 883e 4ded aebd
