Affective_Computing_Project_Archive_2025/facial_expression_model_full.pth (torch, 535554 bytes, 12 tensors)

weight f4 [32, 2, 3]
0	0x3d7a8b38	0.061167926
1	0x3e12a4ef	0.1432073
2	0xbcdaaa3f	-0.026692508
3	0xbf2acd1c	-0.6671922
4	0xbed489f8	-0.41511512
5	0x3e253be3	0.16136126
6	0x3e9b8d31	0.30381158
7	0xbe936a4e	-0.28792042
8	0xbe91a1a2	-0.2844363
9	0x3e4602c2	0.1933699
10	0xbe758151	-0.23975112
11	0x3dfb33f4	0.12265769
12	0x3cdd040f	0.026979474
13	0xbed3492f	-0.41266772
14	0xbede51f0	-0.43421888
15	0xbe95a827	-0.29229853
16	0xbe4f53a6	-0.20246753
17	0x3decac6f	0.115563266
18	0xbe90094a	-0.28132087
19	0xbd6d34d8	-0.057911724
20	0xbeb5a298	-0.35475612
21	0xbe8bda16	-0.27314824
22	0x3e4fb310	0.2028315
23	0x3d4e9720	0.050437093
24	0x3e0beeec	0.1366536
25	0x3f4a23a6	0.78960645
26	0xbf1edd7f	-0.62056726
27	0x3e8aaff9	0.2708738
28	0x3e6d2b68	0.2316109
29	0xbf5920f6	-0.8481592
30	0x3df493e6	0.11942272
31	0xbf09b407	-0.53790325
32	0x3e1a213a	0.15051737
33	0xbe62f987	-0.221655
34	0x3e6dd72e	0.23226616
35	0xbf075f8b	-0.5288016
36	0x3e732aed	0.23746844
37	0xbe4041b3	-0.18775062
38	0x3e503511	0.20332743
39	0xbe9e1716	-0.30876988
40	0x3e34a312	0.17640331
41	0xbe9a9df5	-0.30198637
42	0x3e57944e	0.21052667
43	0xbeb5db42	-0.35518843
44	0x3e2766c2	0.16347793
45	0x3dda642d	0.10663638
46	0x3e61b83c	0.22042936
47	0xbee4f4f5	-0.44718137
48	0xbe79e44f	-0.24403499
49	0x3dc922c2	0.09821083
50	0xbe9be81c	-0.30450523
51	0x3de4fdc3	0.11181214
52	0x3d9c82dc	0.07642147
53	0xbee49008	-0.44641137
54	0xbf150b8e	-0.58220756
55	0xbfa34644	-1.2755818
56	0xbf474ebd	-0.7785452
57	0x3f140c8f	0.5783166
58	0x3efb288f	0.4905438
59	0x3eccdb48	0.40011048
60	0x3eb2a47f	0.34891126
61	0x3ed92893	0.42413768
62	0xbe26061e	-0.16213271
63	0x3eb3def2	0.3513103
64	0x3ea6a374	0.3254658
65	0x3e750a51	0.23929717
66	0xbeed3494	-0.46329176
67	0xba7080c3	-0.00091744604
68	0xbde795b1	-0.11307848
69	0xbec00bd5	-0.37509027
70	0xbed59bbf	-0.41720387
71	0x3e57defe	0.21081159
72	0xbf1492d0	-0.5803652
73	0xbeb0103e	-0.34387392
74	0xbf4c0cbd	-0.7970694
75	0xbe2a350d	-0.166218
76	0x3eb66cf0	0.35629988
77	0xbc2e3f9f	-0.010635286
78	0x3f10cd16	0.56562936
79	0xbed6b8f1	-0.41937974
80	0xbf009bd8	-0.502378
81	0xbeae69e9	-0.34065178
82	0xbe61d454	-0.22053653
83	0xbe83e3c3	-0.25759706
84	0xbd7800a1	-0.060547475
85	0x3d2b9333	0.041888427
86	0xbf24c8b2	-0.64368737
87	0x3f4f98ac	0.81092334
88	0xbea40f12	-0.32042748
89	0x3f06fcdd	0.5272959
90	0xbf0bea9e	-0.5465487
91	0xbf0ba4ec	-0.54548526
92	0xbe5dd587	-0.21663485
93	0xbdcd9061	-0.10037304
94	0x3e22b5ee	0.15889713
95	0x3bbf2390	0.005833097
96	0xbd3afca6	-0.0456511
97	0xbdd04c22	-0.10170771
98	0xbe72f1a1	-0.23724987
99	0x3e48c698	0.19607008
100	0x3e6ed507	0.23323451
101	0xbdf3cb6b	-0.11904033
102	0xbe2ebe4d	-0.17064781
103	0xbb4a9eff	-0.0030917523
104	0xbee883c9	-0.45413044
105	0xbec9e345	-0.39431205
106	0x3e0cba54	0.13742954
107	0xbefc831c	-0.4931878
108	0xbeadfe05	-0.33982864
109	0x3e978039	0.29590014
110	0x3ef65bf6	0.48117036
111	0xbeef0214	-0.46681273
112	0x3d9d2493	0.076729916
113	0x3db6609a	0.08905144
114	0xbefb2c40	-0.49057198
115	0x3f1b5b6c	0.60686374
116	0x3ddc94ab	0.10770544
117	0xbe0de064	-0.1385513
118	0xbea53b18	-0.32271647
119	0x3f0c25c1	0.5474511
120	0x3e9d6350	0.30739832
121	0x3ece801f	0.40332124
122	0x3e04d1ee	0.12970707
123	0x3ee346e5	0.44390026
124	0xbf54edb7	-0.83175224
125	0x3e7664c7	0.24061881
126	0xbe63a4cc	-0.22230834
127	0xbe8595a2	-0.26090723
128	0xbe2a6a76	-0.16642174
129	0xbe775222	-0.24152425
130	0x3e0791b4	0.13239175
131	0x3d8588d8	0.065202415
132	0xbe90435c	-0.2817639
133	0x3d5b6f79	0.053573105
134	0xbe021d40	-0.1270647
135	0x3d076818	0.033058256
136	0xbe097fd6	-0.13427672
137	0x3e66ed26	0.22551402
138	0xbdf0fbfa	-0.11766811
139	0x3ebdd367	0.3707535
140	0x3e14c66f	0.14528821
141	0xbd2801ce	-0.041017346
142	0x3e9b65c1	0.3035107
143	0xbe5f238a	-0.21790901
144	0xbe12aff5	-0.14324935
145	0xbf1d8bce	-0.6154145
146	0x3dded7eb	0.10881027
147	0xbf41de20	-0.7572956
148	0x3f111aba	0.56681406
149	0xbe825e65	-0.25462642
150	0x3e89faf7	0.26949283
151	0xbdc4f14f	-0.096163385
152	0x3c8e365f	0.01735991
153	0xbe8ec966	-0.2788803
154	0xbede2aa0	-0.43391895
155	0x3cc98f8b	0.02460458
156	0x3ce36232	0.027756784
157	0x3dc9a868	0.09846574
158	0xbede013e	-0.43360323
159	0x3cbe0a8f	0.023198394
160	0xbcd9e3fd	-0.026597971
161	0xbf84282a	-1.0324757
162	0x3d858024	0.065185815
163	0xbe6056f9	-0.21908177
164	0x3f13b2ed	0.57694894
165	0x3f0d60f7	0.5522608
166	0x3dffa0bd	0.1248183
167	0xbf46b8b1	-0.77625567
168	0xbed57a2e	-0.41694778
169	0x3e5bc462	0.21461633
170	0xbe0b596b	-0.13608329
171	0xbed823d1	-0.42214826
172	0xbe4b1364	-0.19831616
173	0xbe0b2c96	-0.13591227
174	0x3e50bf70	0.20385528
175	0xbd59cb62	-0.053172477
176	0x3f6cd6e4	0.925154
177	0x3b9ca8f0	0.004780881
178	0xbeddc99a	-0.43317872
179	0xbf96ad83	-1.1771702
180	0xbeb9b655	-0.3627192
181	0x3bbbc740	0.0057305396
182	0xbe3c40d2	-0.18384102
183	0x3db7475c	0.089491576
184	0x3e7f23b8	0.2491597
185	0x3d663450	0.056202233
186	0x3e6df9c1	0.23239805
187	0xbebd8b8f	-0.37020537
188	0xbf4b56c6	-0.7942928
189	0xbf2bbacb	-0.670819
190	0xbde1252e	-0.109934196
191	0xbf36bab0	-0.7137861

bias f4 [32]
0	0xbe7c51b1	-0.24640538
1	0x3e4f7a5a	0.20261517
2	0xbe7020c6	-0.23450002
3	0xbeb7a73a	-0.3586977
4	0x3dac5005	0.084137
5	0xbe1250da	-0.14288655
6	0xbe9e2c83	-0.30893335
7	0xbeb03d00	-0.3442154
8	0xbdf3bf06	-0.11901669
9	0xbeb05d52	-0.34446198
10	0xbf3018f2	-0.68788064
11	0xbf00eb35	-0.503589
12	0x3ef98a82	0.48738486
13	0x3e709f9e	0.23498389
14	0xbd9a44e7	-0.07532673
15	0xbea388c5	-0.31940284
16	0xbeb5b977	-0.3549306
17	0xbb32a098	-0.0027256366
18	0x3d765f1d	0.0601493
19	0xbc81c61c	-0.015841536
20	0xbe520d2c	-0.20512837
21	0xbe151e92	-0.14562443
22	0xbe2d0247	-0.168954
23	0xbf1aca29	-0.6046472
24	0x3f49a705	0.78770477
25	0xbe8d1fa6	-0.27563208
26	0xbb84b382	-0.0040497193
27	0xbdaf70c8	-0.08566433
28	0x3eda31c2	0.42616087
29	0x3eea8949	0.45807865
30	0xbea3e847	-0.3201315
31	0x3f148c1e	0.580263

weight f4 [64, 32, 3]
0	0xbe0f3d08	-0.13988125
1	0xbdfbcf0d	-0.12295351
2	0xbd9a9fc3	-0.075500034
3	0x3d26c3ae	0.04071396
4	0x3c926d1c	0.017874293
5	0xbdfaa654	-0.12238756
6	0xbb8a2eb8	-0.004216995
7	0xbd87a0f9	-0.066225
8	0x3d5188b8	0.051155776
9	0x3d8697a4	0.06571892
10	0xbd0df50a	-0.034657516
11	0x3d8cab66	0.06868629
12	0xbe0d3443	-0.13789468
13	0xbd133c69	-0.035946283
14	0xbd2d30ed	-0.042282987
15	0xbe095f6a	-0.13415304
16	0xbe12075e	-0.14260623
17	0x3cd3fb99	0.025876807
18	0xbd849a39	-0.06474728
19	0xbd32b46b	-0.04362909
20	0xbd9e5364	-0.07730749
21	0x3c2a7feb	0.010406475
22	0xbe235620	-0.15950823
23	0xbbe29c8a	-0.0069156336
24	0x3dadf214	0.08493438
25	0x3db24182	0.08703901
26	0xbab2ba80	-0.0013635904
27	0xbb578812	-0.00328875
28	0xbb90d0bf	-0.0044194157
29	0x3d9c00fd	0.07617376
30	0xbdc48941	-0.095964916
31	0x3ce80895	0.028324405
32	0xbd820fc7	-0.063506655
33	0x3df0bac6	0.11754374
34	0xbd299f0b	-0.04141144
35	0xbdcb85d8	-0.09937638
36	0xbc2facab	-0.01072232
37	0xbdc88f9e	-0.09793018
38	0x3d4f6464	0.05063285
39	0xbe136ba8	-0.14396536
40	0x3d142825	0.036171097
41	0xbe171574	-0.14754277
42	0x3d0f5ad2	0.034998722
43	0xbcd4a56a	-0.025957782
44	0xbe00d854	-0.12582523
45	0x3d9f5ff8	0.077819765
46	0xbd154d26	-0.036450528
47	0x3d84ee06	0.06490712
48	0x3cb2a9f4	0.021809556
49	0xbdcbf686	-0.0995913
50	0xbce4374c	-0.027858399
51	0x3cad0b08	0.021123424
52	0xbd1f5294	-0.038897112
53	0xbded2a40	-0.11580324
54	0xbaec7db7	-0.0018042837
55	0xbdfedd6f	-0.12444579
56	0xbdc1373c	-0.09434363
57	0xbd79c5d0	-0.060979664
58	0xbe0c9311	-0.13727976
59	0xbd0d50ab	-0.03450076
60	0x3cf54aee	0.029942956
61	0xbdb61b9c	-0.08891985
62	0xbdd0c4b4	-0.10193768
63	0xbd7ff22f	-0.062486824
64	0xbc7faa38	-0.015604548
65	0xbdcaf201	-0.0990944
66	0xbdcf9a4c	-0.10136852
67	0xbd514ff1	-0.05110163
68	0xbddc9b06	-0.10771756
69	0xbdf05e5f	-0.1173675
70	0xbe0890d0	-0.13336492
71	0x3b233549	0.0024903587
72	0x3d40bc51	0.047054593
73	0xbd4a171d	-0.04933845
74	0x3b45267f	0.003008276
75	0x3d2d5878	0.0423207
76	0x3c411ae0	0.011786193
77	0x3c0ef280	0.008724809
78	0x3cb4dea3	0.022078818
79	0xbba04c3e	-0.0048919013
80	0xbde0d824	-0.109787256
81	0xbda14bfe	-0.078758225
82	0xbcc8c1bb	-0.02450644
83	0x3c0ef02b	0.008724253
84	0x3c26a83a	0.010171944
85	0xbe11fc88	-0.1425649
86	0xbd731f21	-0.05935586
87	0xbe16224c	-0.1466152
88	0xbd8002b1	-0.06250513
89	0xbe036d57	-0.12834679
90	0x3cfb7068	0.030693248
91	0xbc867da0	-0.016417325
92	0xbd7d7775	-0.0618815
93	0x3e002b10	0.12516427
94	0xbc70a9f0	-0.014688954
95	0xbdaafcaa	-0.08348973
96	0xbc6a9ae0	-0.014319152
97	0xbd18dd2d	-0.037320305
98	0xbd87caef	-0.066305034
99	0xbcc771f2	-0.024346326
100	0x3b337406	0.0027382388
101	0xbdcf7266	-0.10129242
102	0xbd8a8931	-0.067644484
103	0x3d3d5a2c	0.046228573
104	0x3d8c6984	0.06856063
105	0xbd7fd5f6	-0.06245991
106	0xbdb7d147	-0.08975463
107	0xbdb2ae4a	-0.08724649
108	0xbd918730	-0.07105863
109	0x3d5c3da6	0.05376973
110	0xbcf247d1	-0.02957526
111	0xbdd24e33	-0.102688216
112	0xbe0b3802	-0.13595584
113	0x3b71b17f	0.0036879478
114	0xbdf2d563	-0.118571065
115	0x3d9e5559	0.077311225
116	0xbdfef60d	-0.12449274
117	0xbd385827	-0.045005944
118	0x3d60e5b3	0.05490656
119	0xbdf43689	-0.11924464
120	0xbc281021	-0.010257752
121	0xbdc6f52e	-0.09714733
122	0x3cc537f1	0.024074527
123	0x3a24d8c0	0.0006288402
124	0x3d46b3c6	0.04851129
125	0x3d319d70	0.043363035
126	0x3d9a5ace	0.07536851
127	0x3c9b775f	0.018977819
128	0x3d42ad05	0.047528286
129	0x3d68ea8b	0.056864303
130	0xbdfae4f6	-0.12250702
131	0xbde6a462	-0.11261822
132	0x3cf5e204	0.030015
133	0xbdbeb7f3	-0.09312429
134	0xbd1f486b	-0.038887423
135	0x3cc541a6	0.024079155
136	0xbde5f70c	-0.11228761
137	0xbe0cd800	-0.13754272
138	0xbcb6afe9	-0.022300677
139	0xbd014212	-0.03155715
140	0x3bc8d67f	0.0061290856
141	0x3c49bfb4	0.012313772
142	0xbd6a025b	-0.057131153
143	0xbd38180f	-0.04494482
144	0x3d76433c	0.060122713
145	0x3b9d1010	0.0047931746
146	0xbd41dafc	-0.04732798
147	0x3d0568a7	0.032570507
148	0xbde45f7f	-0.11151027
149	0xbd0cbed8	-0.03436169
150	0x3c5b3fca	0.013381908
151	0xbdcba009	-0.09942634
152	0xbda32441	-0.07965899
153	0xbdb271c7	-0.087131076
154	0xbd5fc582	-0.054631718
155	0x3d5f220d	0.054475833
156	0x3cb989a1	0.022648634
157	0xbca006d0	-0.019534498
158	0xbdf3a9a3	-0.1189759
159	0x3d5e7f24	0.05432047
160	0x3d2989e0	0.041391253
161	0x3da8c23c	0.08240172
162	0x3d9394b5	0.07206098
163	0xbd8ec724	-0.06971577
164	0xbceb82e5	-0.028748939
165	0xbd6c8f77	-0.057754006
166	0xbdccc595	-0.09998623
167	0x3d9181a3	0.07104804
168	0xbd91956f	-0.0710858
169	0xbda53886	-0.080674216
170	0x3d9822ae	0.074284896
171	0x3d94acb0	0.072595
172	0x3dfb33db	0.1226575
173	0x3d5b62b0	0.053560913
174	0xbab47628	-0.0013768123
175	0xbded79f6	-0.11595528
176	0xbccd0fa1	-0.025031867
177	0x3cf9fed0	0.030517012
178	0x3c11c1b2	0.008896278
179	0xba586ee6	-0.0008256271
180	0x3c95a50f	0.018267183
181	0xbdc1c75c	-0.09461853
182	0xbda82b1a	-0.08211346
183	0xbd978751	-0.073988564
184	0xbc97e7be	-0.01854312
185	0xbdb7d8ed	-0.08976922
186	0x3daeee86	0.085415885
187	0xbd694577	-0.056951012
188	0x3bf977a0	0.0076131374
189	0x3d0809c3	0.033212435
190	0xbd8ec364	-0.069708616
191	0x3cfc89b8	0.030827388
192	0xbc134f55	-0.008991082
193	0x3bae988d	0.005328244
194	0x39ce4bef	0.00039347957
195	0x3a615a72	0.0008596546
196	0xbe054d64	-0.13017803
197	0xbcad1558	-0.021128342
198	0xbd9feee1	-0.078092344
199	0xbdc86b43	-0.097860835
200	0xbd7c2226	-0.061556004
201	0x3dd037d6	0.101669
202	0xbd88b17a	-0.06674476
203	0x3daf14fa	0.08548923
204	0xbddc0d1d	-0.10744689
205	0xbe13fb6e	-0.14451382
206	0x3cf71d8f	0.030165462
207	0xbda72a43	-0.08162358
208	0xbd0a2897	-0.033730116
209	0xbc25065e	-0.010072319
210	0x3d971a58	0.073780715
211	0x3da8a49e	0.08234523
212	0xbd19f606	-0.03758814
213	0xbd914f15	-0.07095162
214	0xbd1fe820	-0.03903973
215	0xbdf61f1a	-0.12017651
216	0xbd3f4c89	-0.04670385
217	0xbdac8c58	-0.08425206
218	0x3d8e33e0	0.06943488
219	0xbcb5c179	-0.022186982
220	0xbe21893a	-0.15775004
221	0xbd66fb6d	-0.056392122
222	0xbd0fd704	-0.035117164
223	0x3d098136	0.03357049
224	0xbdbf6d6d	-0.09347043
225	0xbcceb683	-0.025233513
226	0xbdb25b5c	-0.08708832
227	0xbd68b997	-0.056817617
228	0xbcae83e0	-0.021303117
229	0xbc78f7ec	-0.015195828
230	0xbdc4ba1f	-0.09605812
231	0xbcadfe6d	-0.021239484
232	0xbdadd675	-0.0848817
233	0xbd2ca0fe	-0.04214572
234	0xbd853326	-0.065038964
235	0xbdd41d82	-0.10357191
236	0xbe1bdc0e	-0.15220663
237	0xbd5553d4	-0.052081898
238	0xbd1dfbc2	-0.038570173
239	0xbdc9c5bf	-0.0985217
240	0x3ca9e5d0	0.020739466
241	0xbc7e7af0	-0.01553224
242	0x3d7ef644	0.062246576
243	0xbdc07b22	-0.09398486
244	0x3d95bc58	0.07311314
245	0xbe11e0bb	-0.14245884
246	0x3cd5f3f3	0.0261173
247	0x3b642f22	0.0034818132
248	0xbe250112	-0.1611369
249	0xbdfc0aa6	-0.123067185
250	0xbddfde23	-0.10931041
251	0xbd8969fc	-0.06709668
252	0xbdeb3557	-0.11484783
253	0xbe1d1d87	-0.15343295
254	0xbd902139	-0.07037587
255	0x3dcca03a	0.09991498

bias f4 [64]
0	0xbd946a0b	-0.072467886
1	0xbd60a221	-0.05484212
2	0xbc5bbad2	-0.013411241
3	0xbdc2bd2b	-0.09508737
4	0xbdc58220	-0.0964396
5	0xbe57eaed	-0.21085711
6	0xbdb59d15	-0.08867852
7	0xbd97fb77	-0.0742101
8	0x3d211e17	0.039335337
9	0xbe58c4ca	-0.21168819
10	0xbddcddd2	-0.10784496
11	0xbbc169b8	-0.0059024952
12	0xbe1e08c8	-0.15433037
13	0xbdc740e4	-0.09729174
14	0xbcaee1af	-0.021347849
15	0x3d4e8c6b	0.05042688
16	0xbde8f0e2	-0.1137407
17	0xbdcb539d	-0.09928057
18	0xbdd00578	-0.10157293
19	0xbe08c162	-0.1335502
20	0xbdffc3aa	-0.12488492
21	0xbd659f5a	-0.056060173
22	0x3cd1faf0	0.025632352
23	0xbd07b3af	-0.033130344
24	0xbe216f70	-0.15765166
25	0xbe209564	-0.15681988
26	0xbeb5a85c	-0.3548001
27	0xbea9c97b	-0.3316153
28	0xbda6d6be	-0.081464276
29	0xbea5b426	-0.32364005
30	0x3cbee0dd	0.023300583
31	0xbc0a0534	-0.008424092
32	0x3e26d6f8	0.16292942
33	0xbe4bfd03	-0.19920735
34	0xbbf68166	-0.0075227497
35	0xbe42c614	-0.19020873
36	0xbdea071b	-0.114271365
37	0xbe3114c3	-0.17293076
38	0xbdc920c8	-0.09820706
39	0xbe19ce9a	-0.15020218
40	0xbe063a02	-0.13108066
41	0xbcbab62a	-0.02279194
42	0xbd631d23	-0.05544771
43	0x3e53af0e	0.20672247
44	0xbd72d1d2	-0.05928213
45	0xbd0adc63	-0.033901583
46	0xbe19955a	-0.1499838
47	0xbbde25b2	-0.006779396
48	0xbd07862b	-0.033086937
49	0x3ce95c00	0.028486252
50	0x3cfd0a9c	0.030888848
51	0xbe31e778	-0.17373455
52	0xbd89999c	-0.06718752
53	0xbca9f427	-0.020746304
54	0x3c43e6ff	0.011956929
55	0xbcd6f131	-0.026238056
56	0xbccf5735	-0.025310138
57	0x3ca66906	0.020313751
58	0xbd8c3103	-0.06845286
59	0x3d826fe0	0.06368995
60	0xbe0aac81	-0.13542368
61	0x3d643de6	0.055723093
62	0xbde2ac26	-0.11067991
63	0xbe374c30	-0.17900157

weight f4 [128, 64, 3]
0	0xbdb38b6c	-0.08766827
1	0xbd9c987a	-0.0764627
2	0xbd6a4797	-0.05719718
3	0xbc4a89bc	-0.01236194
4	0x3d3f4dbc	0.046704993
5	0xbd2d2441	-0.042270903
6	0xbdca477e	-0.09876917
7	0xbd99e0e1	-0.07513595
8	0xbaf42fcd	-0.0018629968
9	0xbd769407	-0.060199764
10	0x3bbcaabb	0.0057576573
11	0xbd15a0b2	-0.036530204
12	0xbd80ec7b	-0.06295105
13	0x3c4f6ae0	0.012659758
14	0xbd3dbc16	-0.04632195
15	0x3c826030	0.015915006
16	0xbd69bc48	-0.057064325
17	0xbc825fe0	-0.015914857
18	0x3c8c8774	0.017154433
19	0xbd8c6d58	-0.06856793
20	0xbdf5d3d0	-0.12003291
21	0xbc80232a	-0.015641768
22	0xbd666947	-0.056252744
23	0xbbbafdbd	-0.0057065175
24	0xbd8a214f	-0.06744634
25	0xbc8cd954	-0.017193474
26	0x3d0cebf8	0.034404725
27	0x3d113dea	0.035459436
28	0xbd2b3aea	-0.04180423
29	0x3d7c5158	0.061601013
30	0xbd4fbdd6	-0.05071815
31	0xbbba7577	-0.0056902724
32	0x3d75eda8	0.0600411
33	0xbdb877b5	-0.09007207
34	0xbd59a499	-0.05313549
35	0xbdf56dc2	-0.11983825
36	0xbd9c8ea1	-0.07644392
37	0xbdfedd2b	-0.12444528
38	0xbd4883d0	-0.04895383
39	0xbd2d3e8b	-0.042295974
40	0xbbab2fbc	-0.0052241962
41	0xbdb847c2	-0.08998062
42	0xbdf36cd6	-0.11885993
43	0xbd28c935	-0.04120751
44	0xbd4d3592	-0.050099917
45	0xbd0ae694	-0.033911303
46	0xbd83d1d5	-0.06436507
47	0xbd9fbbc5	-0.07799486
48	0xbdc9a1fa	-0.09845348
49	0xbccd00af	-0.02502474
50	0xbce17981	-0.027523758
51	0xbdc6b6e2	-0.09702851
52	0xbc82a2c1	-0.015946748
53	0xbdfb54e7	-0.12272053
54	0xbd95c477	-0.07312863
55	0xbe06016d	-0.13086481
56	0xbd2f5089	-0.042801414
57	0xbde95485	-0.11393074
58	0x387ddfbc	6.052827e-05
59	0xbd038222	-0.032106526
60	0xbde681d6	-0.11255233
61	0xbddaa832	-0.10676612
62	0xbd8e682f	-0.06953465
63	0x3c69fa70	0.0142809
64	0xbd8b5fed	-0.06805406
65	0x3d50df62	0.050994284
66	0xbce7d1f9	-0.028298365
67	0xbdcde3d5	-0.10053221
68	0x3b9f08c6	0.004853341
69	0xbde28ce2	-0.110620275
70	0xbe02833d	-0.12745376
71	0x3b6d6dee	0.0036228853
72	0x3d1332a8	0.03593698
73	0x3d8d1350	0.06888449
74	0xbcd0f327	-0.02550657
75	0xbd81cced	-0.063379146
76	0xbc991538	-0.018686876
77	0x39903100	0.00027502328
78	0x3d85ee62	0.065396085
79	0xbc127590	-0.008939162
80	0xbc9afa8a	-0.018918294
81	0xbd734946	-0.05939605
82	0xbd60bdb4	-0.054868415
83	0x3d739da8	0.059476525
84	0xba9de100	-0.0012045205
85	0x3bb5e33e	0.005550771
86	0xbddbf1bd	-0.10739467
87	0x3d001986	0.03127434
88	0x3d772b48	0.06034401
89	0x3d1c22a0	0.03811896
90	0xbdb2165d	-0.08695672
91	0xbd467aca	-0.048456945
92	0x3c194ef9	0.009357207
93	0xbdd508f1	-0.10402096
94	0xbda98858	-0.08277959
95	0xbe010838	-0.12600791
96	0xbccb0f4b	-0.024787566
97	0xbdce08dd	-0.10060284
98	0xbcce85fd	-0.025210375
99	0xbd073a1c	-0.0330144
100	0xbd222f6c	-0.039596006
101	0xbe03f6c5	-0.12887104
102	0xbc083c88	-0.008315213
103	0xbc8a3a52	-0.016873512
104	0x3c6c9f30	0.01444225
105	0x3cc3021c	0.023804717
106	0xbc834f84	-0.016029127
107	0x3cdce2cc	0.026963614
108	0xbcf0750c	-0.029352687
109	0xbd5859c5	-0.052819986
110	0xbb5a8540	-0.0033343583
111	0xbbab8ca0	-0.0052352697
112	0x3c354090	0.011062756
113	0x3d060038	0.032715052
114	0xbe040665	-0.12893064
115	0xbd715937	-0.058922973
116	0xbde5c47e	-0.112191185
117	0xbd0c6db7	-0.03428432
118	0x3c19f399	0.009396457
119	0xbdfa57bb	-0.122237645
120	0xbdec3df2	-0.11535253
121	0xbde7811c	-0.113039225
122	0xbbdd5b9b	-0.006755305
123	0xbd60e149	-0.05490235
124	0xbd0e6879	-0.0347676
125	0xbd37773f	-0.044791456
126	0xbd07b0c9	-0.03312758
127	0xbd5ca1ba	-0.053865172
128	0xbd64939c	-0.055804834
129	0xbdf45a2b	-0.11931261
130	0xbdec1ad4	-0.115285546
131	0xbd834b8f	-0.06410896
132	0xbd11fa7c	-0.03563927
133	0xbd7849ce	-0.06061726
134	0xbd864ede	-0.065580115
135	0xbdb6020c	-0.08887109
136	0x3b0d57ba	0.0021567182
137	0xbb2ce306	-0.0026380434
138	0xbd681f6c	-0.05667059
139	0x3d367d2c	0.044552967
140	0xbd129516	-0.03578671
141	0xbd14ea4b	-0.03635625
142	0x3ca02cb8	0.019552574
143	0xbd8361e0	-0.064151525
144	0xbdc98272	-0.098393336
145	0x3c3e4d6b	0.011615138
146	0xbdb4512e	-0.08804546
147	0xbcef4c1a	-0.029211093
148	0xba96ef01	-0.001151532
149	0xbd267f09	-0.040648494
150	0xbd5282f3	-0.051394414
151	0xbc1343f7	-0.008988372
152	0xbd3efb78	-0.046626538
153	0xbc812bec	-0.015768014
154	0xbdeab086	-0.114594504
155	0x3c286265	0.010277365
156	0xbd17d1c9	-0.0370653
157	0xbd06397b	-0.03276966
158	0xbdb21365	-0.086951055
159	0xbcf68628	-0.030093268
160	0x3b902190	0.004398532
161	0xbdf52233	-0.119694136
162	0xbdebfc23	-0.11522701
163	0xbc49d2e8	-0.01231835
164	0x3c0e61b3	0.0086902855
165	0xbd33b8c3	-0.043877374
166	0xbd855c16	-0.065117046
167	0x3d92bd1a	0.071649745
168	0x3ca2ba1c	0.019864134
169	0x3c81f380	0.01586318
170	0x3cc7ddf8	0.024397835
171	0xbd97e0e1	-0.07415939
172	0xbd9d687a	-0.07685943
173	0xbdbac2fb	-0.09119221
174	0xbdb430fa	-0.08798404
175	0xbda34485	-0.079720534
176	0xbd11e423	-0.03561796
177	0x3c570928	0.013124742
178	0xbdaed3c9	-0.085364886
179	0xbcd76548	-0.026293412
180	0xbbc02d30	-0.005864762
181	0x3d3d9e48	0.046293527
182	0x3cff615c	0.031174354
183	0xbd5474af	-0.05186909
184	0xbc71c5d2	-0.014756637
185	0xbc8d6bab	-0.017263254
186	0x3c22ad58	0.009929024
187	0xbdff237c	-0.1245794
188	0xbc8376aa	-0.016047794
189	0xbd103288	-0.03520444
190	0xbd924c53	-0.07143464
191	0xbd55e369	-0.05221883
192	0x3d202b65	0.039103884
193	0x3d331a2e	0.04372614
194	0xbbb30dbf	-0.005464285
195	0xbcb2d2f4	-0.021829106
196	0xbdaa8f60	-0.08328128
197	0xbd074ca6	-0.033032082
198	0xbc36578e	-0.011129273
199	0x3dcd99fb	0.10039135
200	0x3c5ffdf7	0.01367139
201	0xbd159597	-0.036519613
202	0xbce35597	-0.027750773
203	0xbb3a31fb	-0.0028411138
204	0x3b25a380	0.0025274456
205	0x3d3d0019	0.04614267
206	0x3e03b953	0.12863664
207	0xbe06054c	-0.13087958
208	0x3e315b42	0.17319968
209	0xbe418159	-0.18896998
210	0xbd1cf49b	-0.03831921
211	0x3d35ec7b	0.04441498
212	0xbd8432f6	-0.064550325
213	0x3cffe81a	0.031238604
214	0x3dd702ce	0.10498582
215	0x3d6fd073	0.058548402
216	0xbd91a42c	-0.071113914
217	0xbd809ca9	-0.062798806
218	0x3cc259b4	0.023724414
219	0x3d202134	0.039094165
220	0xbd49000c	-0.04907231
221	0xbd484357	-0.048892345
222	0x3d5da865	0.05411567
223	0xbd9480b9	-0.072511144
224	0xbd762d5d	-0.060101856
225	0xbbd5a8b8	-0.006520357
226	0xbdefbc5f	-0.11705851
227	0xbe8e8471	-0.2783542
228	0xbe06f848	-0.1318065
229	0x3d9b9158	0.075960815
230	0x3d75d6e8	0.060019404
231	0x3d1844bd	0.03717493
232	0xbd879da3	-0.06621864
233	0x3cb20f07	0.021735681
234	0xbd6fc793	-0.05853994
235	0xbd8a3f81	-0.06750394
236	0x3e0da90f	0.13834022
237	0x3ca851a5	0.020546744
238	0x3d780763	0.06055392
239	0x3d3ab42b	0.045581978
240	0xbcbef156	-0.023308437
241	0x3d94be13	0.07262816
242	0x3d585cd0	0.052822888
243	0x3ddb149e	0.10697292
244	0xbdf69ab8	-0.12041229
245	0xbe103bbc	-0.14085287
246	0xbd86bc03	-0.06578829
247	0x3a4f3c01	0.00079053646
248	0x3c18ef58	0.009334408
249	0xbd0608ef	-0.032723363
250	0x3c0c1aad	0.008551282
251	0xbd3c1ae3	-0.04592408
252	0x3c473460	0.012158483
253	0x3c82e317	0.015977426
254	0x3ce673b4	0.028131343
255	0x3d6110e1	0.054947738

bias f4 [128]
0	0xbd5daf2f	-0.054122146
1	0x3e0e824e	0.13916895
2	0xbc3343b0	-0.010941431
3	0xbde73ecc	-0.112912744
4	0xbd222d4e	-0.039593987
5	0xbd7340d4	-0.059387997
6	0x3da293e1	0.07938362
7	0xbcbcc91f	-0.02304512
8	0xbe684a4b	-0.2268459
9	0xbcd2dda1	-0.025740447
10	0xbdeecea9	-0.11660511
11	0xbdc6f011	-0.09713758
12	0xbdfafab6	-0.122548506
13	0xbc19e9a4	-0.009394083
14	0xbdbd275f	-0.09236025
15	0xbda8c28b	-0.08240231
16	0xbe29e420	-0.16590929
17	0xbd990c3f	-0.07473039
18	0xbe34a5e7	-0.17641412
19	0xbdf337da	-0.11875887
20	0xbcb2301a	-0.021751452
21	0x3c9bb7c2	0.019008521
22	0xbd86898a	-0.06569202
23	0xbd0d2039	-0.034454558
24	0x3b910f21	0.0044268523
25	0xbdc28d87	-0.094996504
26	0xbd9ddbe2	-0.07707955
27	0xbd93b1c1	-0.07211638
28	0xbdbc2701	-0.09187127
29	0x3e54bbdb	0.20774786
30	0x3c45bbfc	0.012068745
31	0xbdebb53a	-0.115091756
32	0x3e926426	0.28592032
33	0xbce76249	-0.028245108
34	0xbaa332b0	-0.0012451019
35	0xba8ac74f	-0.0010587963
36	0x3d0754c1	0.033039812
37	0xbd9a96f1	-0.07548321
38	0x3e5f584e	0.2181103
39	0xbc8b78ae	-0.017025318
40	0xbd990221	-0.07471109
41	0xbda21a10	-0.07915127
42	0xbd12c53e	-0.035832636
43	0xbd798a9b	-0.0609232
44	0xbdc52937	-0.09627002
45	0xbd061b78	-0.03274104
46	0xbc177fb2	-0.0092467535
47	0xbe548eb8	-0.20757568
48	0xbdd0994b	-0.10185488
49	0xbe1265ef	-0.14296697
50	0xbdbea733	-0.093092345
51	0xbcf94d58	-0.030432388
52	0xbce6aa8d	-0.028157497
53	0xbdac8c1a	-0.0842516
54	0xbdb0e3d7	-0.08637207
55	0x3e03c962	0.1286979
56	0xbec0938b	-0.37612566
57	0xbe8ad885	-0.27118316
58	0xbd507d1b	-0.05090056
59	0x3a4f2b59	0.00079028826
60	0xbd95cf5d	-0.07314942
61	0x3e229ceb	0.15880172
62	0xbd1c6503	-0.03818227
63	0x3b5037c7	0.0031771527
64	0x3bfcd1d2	0.007715442
65	0xbd486451	-0.048923794
66	0xbcd428f1	-0.025898429
67	0xbc6d2986	-0.014475232
68	0x3cc67599	0.024225997
69	0xbdbaaa01	-0.09114457
70	0xbe00a634	-0.12563401
71	0xbccf6a60	-0.025319278
72	0xbdc29940	-0.09501886
73	0xbe1e188b	-0.1543905
74	0xbe809153	-0.25110874
75	0xbcad2a99	-0.021138476
76	0xbd4db663	-0.050222766
77	0xbc6d406f	-0.014480694
78	0x3c0d742d	0.0086336555
79	0xbe364e98	-0.17803419
80	0xbe01011e	-0.12598082
81	0x3b021aed	0.0019852475
82	0xbe693955	-0.22775777
83	0xbe06ccfb	-0.13164131
84	0xbe986c8d	-0.29770318
85	0xbd07953c	-0.033101305
86	0xbe67a029	-0.2261969
87	0xbea21400	-0.31655884
88	0xbcabdaa8	-0.020978287
89	0xbd8c4ec4	-0.06850961
90	0xbe1ba82f	-0.15200876
91	0xbd5ac460	-0.053409934
92	0x3e504113	0.20337324
93	0xbd894607	-0.0670281
94	0xbec67fb8	-0.38769317
95	0xbe09c3e3	-0.13453631
96	0xbd52d0cd	-0.05146866
97	0xbd2ac1ff	-0.041688915
98	0xbdc8a071	-0.09796227
99	0xbdb1cfaf	-0.086821906
100	0x3d873f6a	0.06603892
101	0xbd9900bd	-0.07470844
102	0x3d8bb5f4	0.06821814
103	0xbdf5d199	-0.12002868
104	0xbdf4f516	-0.11960809
105	0xbd07d8e1	-0.033165816
106	0xbd16cd2a	-0.036816753
107	0xbc9c88a2	-0.01910812
108	0xbd8d69e3	-0.06904962
109	0xbe04ecc7	-0.12980948
110	0xbe110ef1	-0.14165856
111	0x3a946bcd	0.0011323631
112	0xbd8e3410	-0.06943524
113	0xbddba54d	-0.10724888
114	0xbde0304a	-0.109467104
115	0x3d61549e	0.055012338
116	0xbdcd16e0	-0.10014129
117	0xbe54263a	-0.20717707
118	0xbc02ffe1	-0.007995577
119	0xbe8221c1	-0.25416377
120	0xbd05768c	-0.03258376
121	0xbe014713	-0.12624769
122	0xbe3dace6	-0.18522987
123	0xbd8487fa	-0.06471248
124	0xbde87a21	-0.11351419
125	0xbe718111	-0.23584391
126	0xbb0fa476	-0.0021918095
127	0xbcaa589b	-0.020794204

weight f4 [256, 256]
0	0xbd86ecaf	-0.065881126
1	0x3813d182	3.524265e-05
2	0xbc70085e	-0.014650432
3	0xbd082fe7	-0.03324881
4	0xbddaaaf2	-0.106771365
5	0xbd3e6cae	-0.046490364
6	0x3d663d0a	0.056210555
7	0x3d28df64	0.041228667
8	0xbcd985c7	-0.026553048
9	0xbdc790f4	-0.097444445
10	0xbcce81ca	-0.025208373
11	0xbdadb53b	-0.084818326
12	0xbc52672c	-0.012841981
13	0xbd196795	-0.0374523
14	0xbd30a9bc	-0.04313062
15	0xbd00a421	-0.031406526
16	0xbc9f9d38	-0.019484147
17	0xbd6942a2	-0.05694831
18	0xbdbfa30f	-0.09357273
19	0xbd068241	-0.032839064
20	0xbd72f081	-0.059311394
21	0xbc232835	-0.009958317
22	0xbc9e5d27	-0.019331528
23	0xbd9f3ac4	-0.077748805
24	0xbdaca47c	-0.084298104
25	0xbde4e244	-0.11175969
26	0xbdc30bd3	-0.0952374
27	0x3d41b368	0.047290236
28	0x3d619b76	0.0550799
29	0xbd7a0c4c	-0.061046883
30	0xbdbef8d1	-0.09324802
31	0xbc0c8831	-0.008577392
32	0x3d07d91c	0.033166036
33	0xbd3e1744	-0.046408907
34	0xbb7b5000	-0.0038347244
35	0x3d2f0538	0.042729586
36	0xbde88341	-0.1135316
37	0xbd8c2eb6	-0.06844847
38	0xbab084cf	-0.0013467314
39	0xbd94ffc2	-0.072753444
40	0xbcff94c3	-0.031198865
41	0xbdf7ffef	-0.12109362
42	0xbdebe090	-0.11517441
43	0xbde59924	-0.1121085
44	0xbcea1420	-0.02857405
45	0xbd85ae2f	-0.065273635
46	0xbd1af7ad	-0.03783386
47	0xbd8c371b	-0.06846448
48	0xbd948e84	-0.07253745
49	0xbdc82ae2	-0.09773804
50	0xbbc59606	-0.006029847
51	0xbd674396	-0.05646094
52	0x3d4d808a	0.050171413
53	0xbcb43048	-0.021995679
54	0xbda2fe26	-0.07958631
55	0xbc3f7c6b	-0.011687378
56	0xbdc00a19	-0.09376926
57	0xbda7c1ed	-0.08191285
58	0xbd2380f9	-0.03991792
59	0xbd7d6eb8	-0.061873168
60	0xbddc8b08	-0.107687056
61	0xbd6ed807	-0.05831149
62	0x3d08e812	0.033424444
63	0xbd062712	-0.032752104
64	0xbd402f01	-0.046919826
65	0xbd6cf07c	-0.05784653
66	0xbd9b69bf	-0.07588529
67	0x3c3583e0	0.011078805
68	0xbde07dac	-0.1096147
69	0xbacc28d9	-0.0015576138
70	0x3d51e018	0.051239103
71	0xbda94725	-0.08265523
72	0xbdb30878	-0.0874185
73	0xbca8895e	-0.020573314
74	0xbb488640	-0.0030597597
75	0xbd6b1eaf	-0.05740231
76	0xbdd920d4	-0.106019646
77	0xbdf94089	-0.12170512
78	0xbd879f03	-0.06622126
79	0xbd2730ee	-0.040818147
80	0xbcc4f829	-0.024044113
81	0xbc5ea43b	-0.01358896
82	0xbcacabfb	-0.0210781
83	0xbc3de260	-0.011589617
84	0xbcf123cc	-0.029436015
85	0xbaf801ae	-0.0018921399
86	0xbc9e56d0	-0.019328505
87	0xbdc45727	-0.095869355
88	0xbdc70f92	-0.09719767
89	0xbd3e5e71	-0.046476785
90	0x3d04c34e	0.03241282
91	0xbd2dbb00	-0.042414665
92	0xbdbe9723	-0.09306171
93	0x3bf8f640	0.0075977147
94	0xbb5d35e0	-0.0033754036
95	0xbc8b64b0	-0.017015785
96	0x3c91fdcc	0.017821215
97	0xbd6d43c4	-0.057925954
98	0xbd5851ec	-0.0528125
99	0xbd485e88	-0.048918277
100	0xbd55f06b	-0.052231234
101	0xbdb26196	-0.08710019
102	0xbd345632	-0.044027515
103	0xbc2afe55	-0.010436614
104	0xbcda8cf3	-0.026678538
105	0xbd5e5e8d	-0.05428939
106	0xbdc430a3	-0.09579589
107	0xbd508c30	-0.050914943
108	0xbd0aa27e	-0.03384637
109	0xbdb3bf9a	-0.087767795
110	0xbb12fa91	-0.0022427181
111	0xbcda39e1	-0.026638927
112	0xbcb1f6cc	-0.021724127
113	0xbd69605c	-0.05697666
114	0x3d0873ec	0.033313677
115	0x3cbb31c8	0.022850886
116	0xbc1fc9e0	-0.009752721
117	0x3ce59158	0.028023407
118	0xbd131a13	-0.03591354
119	0xbdd924f8	-0.10602754
120	0xbdbbf3de	-0.09177373
121	0xbd523421	-0.051319245
122	0xbc9a5326	-0.018838476
123	0xbd922aef	-0.07137095
124	0x3a732b3c	0.0009276157
125	0xbb51818f	-0.0031968092
126	0xbd53d459	-0.051716182
127	0xbdddf3ba	-0.10837503
128	0xbdf576f8	-0.11985582
129	0xbcdfe8d2	-0.027332697
130	0xbdf0a86e	-0.117508754
131	0xbddde3a9	-0.10834438
132	0x3a506f0b	0.0007951117
133	0x3c9f149c	0.019419007
134	0xbd84769b	-0.06467935
135	0xbd0cda6e	-0.034388
136	0xbbeb3dd3	-0.007179001
137	0xbd521f3d	-0.051299322
138	0xbd4fc5f4	-0.050725892
139	0xbcbdc084	-0.023163088
140	0xbd8c273a	-0.068434194
141	0xbdc80047	-0.09765678
142	0xbd043f0f	-0.0322867
143	0xbc46a748	-0.012124844
144	0xbd1806e4	-0.037115946
145	0x3c8f1e88	0.017470613
146	0x3d3eca6c	0.046579763
147	0xbd256ebc	-0.040388808
148	0xbbde5e40	-0.006786138
149	0xbd3a0d32	-0.04542274
150	0xbddb0df2	-0.10696019
151	0xbd2c8a95	-0.04212435
152	0xbdf87ab2	-0.12132777
153	0xbd9bae2b	-0.07601579
154	0xbd4ddce8	-0.0502595
155	0xbd3f7fde	-0.046752803
156	0xbc693f9b	-0.014236356
157	0xbba281c0	-0.004959315
158	0xbc533025	-0.0128898965
159	0xbde2b3d9	-0.110694595
160	0xbde7e1e5	-0.11322383
161	0xbc47df0b	-0.012199174
162	0xbdaf3aef	-0.085561626
163	0xbc663c57	-0.014052472
164	0xbd723458	-0.05913195
165	0xbd6de2ca	-0.05807761
166	0xbc92973c	-0.01789438
167	0xbd45dd3f	-0.0483067
168	0x3d6840fa	0.05670259
169	0xbde120a3	-0.10992553
170	0xbd5e1b46	-0.05422523
171	0xbdc7cbf4	-0.09755698
172	0xbd708c1e	-0.058727376
173	0x3d018954	0.031625107
174	0xbac18584	-0.0014764522
175	0xbc94c5a4	-0.018160649
176	0xbcae92a8	-0.021310166
177	0x3d6f7a7e	0.058466427
178	0xbdfa0ffb	-0.12210079
179	0xbda8734b	-0.082251154
180	0x3c2eb8b2	0.010664152
181	0x3b855d00	0.0040699244
182	0xbd0c2870	-0.03421825
183	0xbdb65dc9	-0.08904607
184	0xbdecd9eb	-0.11565002
185	0xbdf1fbdb	-0.11815616
186	0xbcbbffc8	-0.022949114
187	0x3cf2809c	0.029602341
188	0x3d23cc20	0.03998959
189	0xbcaed4de	-0.021341737
190	0xbd415420	-0.04719937
191	0xbd9115d0	-0.070842385
192	0xbdd22989	-0.102618285
193	0xbcd6a4b6	-0.026201587
194	0xbd803536	-0.06260149
195	0xbd45353d	-0.048146475
196	0xbdbd4b5b	-0.092428885
197	0xbd957a22	-0.072986856
198	0xbd3c1e2e	-0.04592722
199	0xbb4a9398	-0.0030910727
200	0xbde88692	-0.11353792
201	0xbcc9f731	-0.024654003
202	0xbcbe3010	-0.023216277
203	0x3d6a533c	0.057208285
204	0xbd783d6e	-0.06060546
205	0xbc0a5aea	-0.008444527
206	0xbd9924c5	-0.07477716
207	0xbd2e487e	-0.042549603
208	0xbd0a7060	-0.033798575
209	0xbd64081c	-0.055671796
210	0xbdaebfcb	-0.08532675
211	0xbdea7eeb	-0.11449989
212	0x3d5824c6	0.052769445
213	0x3be8cf30	0.007104777
214	0xbc48fa1a	-0.01226666
215	0xbdac0d06	-0.084009215
216	0x3d066a5a	0.03281627
217	0xbbeeefe0	-0.007291779
218	0x3c4244f0	0.011857256
219	0x3cbfeb34	0.023427583
220	0x3d1f1e36	0.03884717
221	0xbcaf161f	-0.021372853
222	0xbdbedd16	-0.093195125
223	0xbc30bc70	-0.0107871145
224	0xbdaef736	-0.085432455
225	0xbd74cc2e	-0.059765033
226	0xbc0d63ec	-0.00862978
227	0xbdf954c0	-0.12174368
228	0xbdddf0b5	-0.10836927
229	0xbd048915	-0.032357294
230	0xbc52255e	-0.012826292
231	0xbdacdbec	-0.08440384
232	0xbd9a7195	-0.07541195
233	0xbd3ecac1	-0.04658008
234	0xbd412916	-0.047158323
235	0x3d3712e2	0.044695742
236	0xbd59afe1	-0.053146247
237	0xbd592018	-0.053009123
238	0x3a57f748	0.0008238447
239	0xbd678015	-0.056518633
240	0xbc01be2a	-0.007918874
241	0xbdc8cdae	-0.09804855
242	0xbdb58d7c	-0.08864877
243	0xbd9c9b78	-0.07646841
244	0x3d3d73d2	0.046253033
245	0xbd687a62	-0.05675734
246	0xbd2f9030	-0.042862117
247	0xbde46214	-0.111515194
248	0xbde938f7	-0.11387818
249	0xbdc418d5	-0.09575049
250	0xbd11e85c	-0.035621986
251	0x3d500144	0.050782457
252	0xbce86e6e	-0.02837297
253	0x3b16d1c0	0.0023013204
254	0xbdb33023	-0.08749416
255	0xbd4e9af8	-0.05044076

bias f4 [256]
0	0xbcb5d0e7	-0.022194339
1	0xbd9d483f	-0.076797955
2	0xbe86b835	-0.26312414
3	0xbc680264	-0.014160726
4	0xbe4a8f4d	-0.19781227
5	0x3d5eb7fb	0.054374676
6	0xbdba410b	-0.09094437
7	0x3c6577a4	0.014005575
8	0xbd39ac68	-0.045330435
9	0xbda795b5	-0.08182851
10	0xbd37697a	-0.044778325
11	0xbd55f26d	-0.05223315
12	0xbd847227	-0.06467085
13	0x3d2b064f	0.041754063
14	0xbda665fd	-0.081249215
15	0x3d822ef9	0.063566156
16	0xbd675b9f	-0.05648386
17	0x3c588d7b	0.013217325
18	0xbc285f9c	-0.010276701
19	0xbe8d774e	-0.27630085
20	0xbd3ad802	-0.045616157
21	0xbd99d1b1	-0.075106986
22	0xbd3cffa2	-0.046142228
23	0xbe2a643a	-0.16639796
24	0xbc5f1550	-0.013615921
25	0xbdcede26	-0.10100965
26	0xbb9c94c4	-0.0047784764
27	0xbd0dab31	-0.03458709
28	0xbc2298b8	-0.009924106
29	0x3ac2180e	0.0014808194
30	0xbe8888c9	-0.2666686
31	0x3dad841a	0.08472462
32	0xba263eb4	-0.0006341741
33	0xbeaa4bee	-0.33261055
34	0xbda3dbaa	-0.08000882
35	0xbd821874	-0.0635232
36	0xbe4015de	-0.18758342
37	0xbdb34472	-0.08753289
38	0xbd17859a	-0.036992647
39	0xbbd99802	-0.006640435
40	0xbe6d7aba	-0.23191348
41	0xbd2509a6	-0.040292405
42	0xbcc4b7c1	-0.024013402
43	0x3e8501cf	0.25977942
44	0xbc67ca13	-0.014147299
45	0xbcda3cdf	-0.026640354
46	0xbcdc4762	-0.026889507
47	0xbdc62e23	-0.09676769
48	0xbe153268	-0.1457001
49	0x3da0b9f8	0.07847971
50	0xbe16d1ec	-0.14728516
51	0xbd766e0a	-0.060163535
52	0xbdf574a5	-0.11985139
53	0xbcb34cfc	-0.021887295
54	0x3de5f42f	0.11228215
55	0xbdcc306f	-0.099701755
56	0xbbbe28aa	-0.0058031874
57	0xbd5a6b2f	-0.053324874
58	0x3ed024dd	0.40653124
59	0xbd135c92	-0.035976954
60	0xbe0f7034	-0.14007646
61	0xbc9d59a0	-0.019207776
62	0xbd4f99f1	-0.05068392
63	0x3d0d4096	0.034485422
64	0xbd87dcbf	-0.06633901
65	0xbe2f129a	-0.1709694
66	0xbe69a443	-0.22816567
67	0x3c50007a	0.012695426
68	0xbd738a54	-0.05945809
69	0xbe4569e2	-0.19278672
70	0xbdb361fd	-0.08758924
71	0xbdad1348	-0.08450943
72	0xbd13be35	-0.036070067
73	0xbbef88f0	-0.0073100254
74	0xbe833747	-0.2562811
75	0xbc0c8b10	-0.008578077
76	0xbd74444f	-0.059635457
77	0xbed048c6	-0.40680522
78	0xbe80f568	-0.2518723
79	0x3e99cc25	0.30038562
80	0xbe433bac	-0.19065732
81	0xbe4ebbdf	-0.20188855
82	0x3e57f6a6	0.21090183
83	0xbe834844	-0.25641072
84	0xbdc8fda8	-0.09814006
85	0xbdd733ac	-0.105079025
86	0x3a6a306f	0.0008933609
87	0x3d84986f	0.06474387
88	0xbdfdf7c0	-0.1240077
89	0xbdf9f38b	-0.12204655
90	0xbda76a6c	-0.08174595
91	0xbd1dcbe8	-0.03852454
92	0xbda3f052	-0.08004822
93	0xbda0a12f	-0.07843243
94	0xbcaeda04	-0.021344192
95	0xbd0c96a1	-0.03432334
96	0xbda0ea92	-0.07857241
97	0xbe0f39c3	-0.13986878
98	0xbe29b3d6	-0.16572508
99	0xbce45561	-0.027872743
100	0xbd0756cc	-0.03304176
101	0xbde203f6	-0.11035912
102	0xbdc8b02e	-0.097992286
103	0xbdab2fba	-0.083587125
104	0xbe66ad04	-0.22526938
105	0xbbbef77b	-0.005827842
106	0xbd8146e9	-0.06312353
107	0xbe7e07ea	-0.24807706
108	0xbcb8fd4f	-0.022581724
109	0xbd783aa0	-0.060602784
110	0xbbba10b1	-0.0056782593
111	0xbd9c59ae	-0.076342925
112	0xbd264612	-0.040594168
113	0xbded7c4e	-0.11595975
114	0xbebd42e3	-0.36965093
115	0xbd031011	-0.031997744
116	0xbd99636f	-0.074896686
117	0xbdb2c602	-0.08729173
118	0xbdaefee8	-0.08544713
119	0xbe95a9e3	-0.29231176
120	0xbe84ba02	-0.25923163
121	0xbc345214	-0.011005897
122	0xbd619878	-0.055077046
123	0xbd9cd16b	-0.07657131
124	0xbd10fcf0	-0.03539747
125	0xbcee701a	-0.029106189
126	0xbce91470	-0.028452128
127	0xbcffad04	-0.03121043
128	0xbe5f85ec	-0.21828431
129	0xbd625df5	-0.055265386
130	0xbd92d1a0	-0.07168889
131	0xbdae929c	-0.08524057
132	0xbd462fcc	-0.048385426
133	0xbdacb5d9	-0.08433122
134	0xbd09ef78	-0.03367564
135	0xbef2a572	-0.4739185
136	0x3c8eb4f3	0.017420268
137	0xbd5f6f59	-0.05454955
138	0xbd197c6d	-0.037472177
139	0xbe49d644	-0.19710642
140	0xbe53bfa5	-0.20678575
141	0xbdb228c0	-0.08699179
142	0xbdd3d8a1	-0.10344053
143	0xbdc4119e	-0.09573673
144	0xbe4fa5df	-0.20278119
145	0xbdb0cffb	-0.08633419
146	0xbe390174	-0.1806696
147	0xbd8a0acf	-0.06740343
148	0xbc8701c1	-0.016480329
149	0xbd117943	-0.035516035
150	0x3b059154	0.0020380812
151	0xbee2eb03	-0.44319925
152	0xbcf80a7c	-0.030278437
153	0xbe77e19e	-0.2420716
154	0xbe8e12d8	-0.27748752
155	0xbcfd4b0b	-0.030919572
156	0xbe2b17ad	-0.1670825
157	0x3f2c8d2b	0.67402905
158	0xbe5215e4	-0.20516163
159	0xbd7a9717	-0.061179247
160	0x3dbf8150	0.09350836
161	0xbed522a6	-0.41627997
162	0xbdbd437a	-0.09241386
163	0xbd9f88ad	-0.07789741
164	0xbd9ad01e	-0.075592265
165	0xbd0a6198	-0.03378448
166	0xbe3d4566	-0.18483505
167	0x3e4fa39e	0.20277259
168	0x3cb592db	0.022164753
169	0xbe98a7dd	-0.2981557
170	0xbd000092	-0.031250544
171	0xbdde84b8	-0.10865158
172	0xbd267366	-0.040637396
173	0x3e56406f	0.20923017
174	0xbe8b808c	-0.2724651
175	0x3ad2af08	0.0016073892
176	0xbc605eec	-0.013694506
177	0xbd0613b8	-0.03273365
178	0xbd0c5950	-0.034264863
179	0xbc84040f	-0.016115217
180	0xbdd77fa0	-0.105223894
181	0xbc90f2fd	-0.01769399
182	0xbe3e2565	-0.18568952
183	0xbb96bb71	-0.0045999815
184	0x3d2d20cf	0.042267617
185	0x3cc3f4f5	0.023920516
186	0xbe6a49be	-0.22879693
187	0xbba10180	-0.004913509
188	0xbc676462	-0.014123054
189	0xbd862587	-0.065501265
190	0xbe7f41b9	-0.24927415
191	0xbe377cf4	-0.1791876
192	0xbe57811b	-0.21045344
193	0xbd64e670	-0.055883825
194	0xbe3be5d5	-0.18349393
195	0xbd986f8a	-0.074431494
196	0x3d49f5bf	0.049306627
197	0xbe34ebf5	-0.17668135
198	0xbe9beee5	-0.304557
199	0xbe0f8f3d	-0.14019485
200	0x3e862451	0.26199582
201	0xbe58f4af	-0.2118709
202	0xbda5e037	-0.08099406
203	0xba78d506	-0.0009492192
204	0xbe4bbfbb	-0.19897358
205	0xbd4e58b8	-0.050377578
206	0xbd84306f	-0.064545505
207	0xbd109e63	-0.0353073
208	0xbd54fb46	-0.051997446
209	0xbe30e9a1	-0.17276622
210	0xbdb05903	-0.08610728
211	0xbcb4f548	-0.022089615
212	0x3e951462	0.29117113
213	0xbcce7cce	-0.025205996
214	0x3dc40388	0.09570986
215	0x3d5b50bc	0.05354379
216	0xbd268c0e	-0.04066091
217	0xbd7f414a	-0.062318124
218	0x3dd76aa1	0.10518385
219	0x3d738136	0.059449397
220	0xbcfb1dbe	-0.03065383
221	0xbd0ad55a	-0.033894874
222	0xbe65bb03	-0.2243462
223	0xbc6a8ffe	-0.014316557
224	0xbde8c045	-0.113647975
225	0x3e37077e	0.17873952
226	0xbcd04431	-0.025423141
227	0xbe09949d	-0.13435598
228	0x3e296e45	0.1654597
229	0xbc8283e4	-0.015932031
230	0xbc34f155	-0.011043866
231	0xbceb975a	-0.028758693
232	0xbe9a8e7d	-0.30186835
233	0x3ee612df	0.44936273
234	0xbd7727f5	-0.06034084
235	0xbdb7d430	-0.089760184
236	0xbe83c03e	-0.25732607
237	0xbc2762ec	-0.010216456
238	0xbc912fc1	-0.017722966
239	0xbe03e9f7	-0.1288222
240	0xbdd6c408	-0.10486609
241	0x3e81afb4	0.25329363
242	0xbcbf3915	-0.023342649
243	0x3d2a8889	0.041634116
244	0x3c271951	0.010198907
245	0xbc26cb58	-0.010180317
246	0x3e00863f	0.12551211
247	0xbbebcc2f	-0.0071959714
248	0xbc5f22b5	-0.013619115
249	0xbd465be0	-0.048427463
250	0xbd14f04e	-0.036361985
251	0xbe9aaddd	-0.30210772
252	0x3aa1d6d6	0.0012347351
253	0xbe33bd3d	-0.17552657
254	0x3da2f7e5	0.079574384
255	0x3ae637ef	0.0017564277

weight f4 [128, 256]
0	0xbd57b055	-0.052658398
1	0xbd56d714	-0.05245121
2	0xbc51de98	-0.012809418
3	0xbc96d841	-0.018413665
4	0xbd073562	-0.033009894
5	0xbd745950	-0.059655488
6	0xbc95abba	-0.018270362
7	0xbdf3d761	-0.11906315
8	0xbd2d303f	-0.04228234
9	0xbdd3f07a	-0.10348602
10	0xbd8035f7	-0.06260293
11	0xbca4ea2c	-0.020131193
12	0xbb6eaa0a	-0.003641727
13	0xbd091ff5	-0.033477742
14	0xbd33d096	-0.043900095
15	0xbd96f67a	-0.073712304
16	0x3b1aab51	0.0023600648
17	0xbc7892e8	-0.015171744
18	0x3cb0df5c	0.021590881
19	0x3d6113c6	0.054950498
20	0x3d4b5c38	0.049648494
21	0x3cb879a8	0.022518948
22	0x3d6c93b6	0.057758056
23	0xbdeffd16	-0.11718194
24	0xbd88806c	-0.066651195
25	0x3d42abf8	0.047527283
26	0xba464d25	-0.0007564596
27	0xbdd5ee64	-0.1044586
28	0xbd874247	-0.06604438
29	0xbce2dc14	-0.027692832
30	0xbd5e7f9c	-0.054320917
31	0xbd810013	-0.06298842
32	0xbd30bb69	-0.04314748
33	0x3a906a00	0.0011017919
34	0x3d1c51ba	0.038163878
35	0x3d59352e	0.05302923
36	0xbd52d530	-0.051472843
37	0xbdd01c6b	-0.1016167
38	0x3cb1fa4e	0.0217258
39	0xbdad9684	-0.08475974
40	0xbce36618	-0.027758643
41	0xbd69f9c0	-0.057122946
42	0xbd16f273	-0.03685231
43	0xbd041d4b	-0.0322545
44	0xbdd5eead	-0.104459144
45	0x3d06f4b4	0.03294821
46	0xbdaaab08	-0.08333403
47	0x3cd10700	0.025516033
48	0x3c85ef24	0.016349383
49	0xbd7ffc65	-0.06249656
50	0xbc3c70f0	-0.011501536
51	0x3d358848	0.04431942
52	0xbdabb97d	-0.083849885
53	0xbdc4e454	-0.09613863
54	0xbd807dea	-0.06274016
55	0xbd73964c	-0.059469506
56	0xbde85179	-0.11343665
57	0xbd2a6e47	-0.041609075
58	0xbd40d844	-0.047081247
59	0x3cb86b68	0.022512153
60	0xbcd9d710	-0.026591808
61	0xbdc8fe8d	-0.09814177
62	0x3cd1e544	0.025622018
63	0x3dd66825	0.10469083
64	0x3d2afc12	0.0417443
65	0x3bb9aab0	0.0056660995
66	0xbb2bbcc0	-0.0026205033
67	0xbdab2314	-0.083563
68	0x3ceb1124	0.028694697
69	0xbc5f5b78	-0.013632648
70	0x3d5a0b54	0.05323346
71	0x3cac86c8	0.021060362
72	0x3d0f01dc	0.034913883
73	0xbde4b7d8	-0.11167878
74	0x3c1816c0	0.009282768
75	0xbde0c0a8	-0.10974246
76	0xbd4ca86c	-0.049965307
77	0x3d12386e	0.035698347
78	0xbd0d2076	-0.034454785
79	0x3b6746c0	0.0035289973
80	0x3a1f5e00	0.0006079376
81	0xbdb0dc44	-0.08635762
82	0xbd772768	-0.060340315
83	0x3aa5ea00	0.0012658238
84	0x3b95467f	0.004555523
85	0x3d09b900	0.033623695
86	0xbd0aaca3	-0.033856045
87	0xbcd76f01	-0.026298048
88	0x3cbf3354	0.023339905
89	0xbcacaffb	-0.021080008
90	0xbc98ad42	-0.018637303
91	0x3d5becd0	0.05369264
92	0x3d35d2ca	0.044390477
93	0xbd67c9ae	-0.05658882
94	0xbd0a0a95	-0.033701498
95	0xbde1801b	-0.11010762
96	0x3d0bfed0	0.034178555
97	0xbd170fd0	-0.036880314
98	0xbd23e34e	-0.040011697
99	0xbd56abe4	-0.05241002
100	0x39420c00	0.00018505752
101	0xbbba7ce0	-0.005691156
102	0xbd5b9b9e	-0.053615205
103	0xbd9b1391	-0.07572091
104	0xbbc402b0	-0.0059817657
105	0xbde32001	-0.11090089
106	0x3d1ee86c	0.038795874
107	0x3d525944	0.05135466
108	0x3ca6141c	0.02027326
109	0xbdc42f25	-0.095793046
110	0xbd9db078	-0.07699674
111	0x3bb0277b	0.0053758
112	0xbd3a9aae	-0.04555767
113	0x3d878336	0.066168234
114	0x3ce7d004	0.028297432
115	0xbc1f3688	-0.009717591
116	0xbcc30b04	-0.023808964
117	0xbdf45ea8	-0.11932117
118	0x3d10b352	0.035327263
119	0xbd4375be	-0.04771971
120	0x3c14dab8	0.00908535
121	0xbce614b8	-0.028086051
122	0xbda5fd20	-0.081049204
123	0xbde38cc8	-0.11110836
124	0x3c4970a0	0.012294918
125	0xbcab9cd0	-0.020948797
126	0xbdd2506b	-0.10269245
127	0xbd789632	-0.060690112
128	0xbd560e38	-0.052259654
129	0xbd8ee934	-0.06978074
130	0x3dbe63e4	0.092963964
131	0xbd0183b4	-0.031619743
132	0xbc8038d4	-0.015652098
133	0xbc26f820	-0.010190994
134	0xbd840800	-0.064468384
135	0x3d601a52	0.0547126
136	0x3d6f23a4	0.0583836
137	0xbd8a5f75	-0.06756488
138	0xbd7f6f88	-0.062362224
139	0xbb8a5900	-0.0042220354
140	0xbca04eb8	-0.019568786
141	0xbcc9e143	-0.024643546
142	0x3c96ee20	0.018424094
143	0x3cb2b2ca	0.021813769
144	0xbd315b24	-0.04329981
145	0xbcca2c08	-0.024679199
146	0xbc4dd908	-0.012563951
147	0xbd7a489b	-0.0611044
148	0xbdca8f67	-0.09890633
149	0x3d17a3a0	0.03702128
150	0xbdd9ae78	-0.106289804
151	0xbc16e520	-0.009209901
152	0xbdfa2076	-0.12213223
153	0xbbaafce0	-0.0052181333
154	0x3d634622	0.055486806
155	0xbce22996	-0.02760772
156	0x3d232382	0.039828785
157	0xbd54995d	-0.05190407
158	0x3d0196b4	0.031637862
159	0x3c89b720	0.016810954
160	0xbdea0a4e	-0.11427747
161	0xbcd87d5c	-0.026426964
162	0xbd26d409	-0.040729556
163	0xbca13f00	-0.019683361
164	0xbd02f7be	-0.031974547
165	0xbdcb52e0	-0.099279165
166	0x3d5da664	0.05411376
167	0xbd55b742	-0.05217672
168	0x3df480c3	0.11938622
169	0xbaee0f00	-0.0018162429
170	0xbd8a9ca3	-0.06768157
171	0x3d19e978	0.03757617
172	0xbd8c7b63	-0.06859472
173	0xbd5b48f1	-0.05353636
174	0xbd343c70	-0.04400295
175	0xbdefda78	-0.117115915
176	0xbd9c6dc0	-0.07638121
177	0x3cd2080c	0.025638603
178	0xbdebbc90	-0.11510575
179	0xbc3354fa	-0.010945553
180	0x3d5197f2	0.051170297
181	0x39977500	0.00028888136
182	0x3bf0d7b0	0.0073499307
183	0xbc337fd6	-0.010955771
184	0xbd279ad8	-0.040919155
185	0xbdb578c1	-0.088609226
186	0x3d016aee	0.031596117
187	0xbcb4f50f	-0.02208951
188	0xbda6c8a6	-0.081437394
189	0x3d67b3a6	0.05656781
190	0x3d0c3d9a	0.034238435
191	0x3be9a060	0.007129714
192	0x3d6fb0c8	0.0585182
193	0xbd03aea2	-0.032148965
194	0xbcb0fd38	-0.02160512
195	0x3cdae134	0.026718713
196	0x3aa2e387	0.0012427428
197	0xbbc03679	-0.0058658686
198	0xbdf510b5	-0.11966077
199	0x3bca4f00	0.0061739683
200	0xbdc4c560	-0.09607959
201	0xbd57df9e	-0.052703492
202	0xbb025c61	-0.0019891488
203	0xbda1fb96	-0.07909314
204	0xbd314f28	-0.04328838
205	0x3aec5097	0.0018029389
206	0xbdb66999	-0.0890686
207	0x3d78e1e6	0.06076231
208	0xbddacf3c	-0.10684058
209	0x3c03b358	0.008038364
210	0xbd15c81a	-0.036567785
211	0xbd9943e6	-0.07483654
212	0xbc691632	-0.014226483
213	0xbcdaa300	-0.026689053
214	0xbc315b78	-0.0108250305
215	0xbb4c4aed	-0.003117259
216	0xbc6c315b	-0.014416064
217	0x3bc378f0	0.0059653446
218	0x3da9de33	0.08294334
219	0xbd9911b0	-0.07474077
220	0xbd3825d9	-0.04495797
221	0xbcab7d22	-0.020933691
222	0x3c20c0c0	0.00981158
223	0x3db9f0fe	0.09079169
224	0x3c50ca08	0.0127434805
225	0xbd69de55	-0.057096798
226	0xbcf6a45e	-0.030107673
227	0x3d5ecfb6	0.054397307
228	0xbcb9a032	-0.022659395
229	0xbd8762f1	-0.066106685
230	0xbd11c38c	-0.03558688
231	0xbc4f46e5	-0.01265118
232	0xbcdeff34	-0.0272213
233	0xbdbfbf03	-0.093626045
234	0xbc8e3212	-0.01735786
235	0xbdd4762e	-0.103741035
236	0x3ca48fc0	0.020088077
237	0xbd016d20	-0.03159821
238	0xbd7ae6bb	-0.061255198
239	0xbba488b0	-0.005021177
240	0xbd4fdc23	-0.050747048
241	0xb9a11a85	-0.00030728072
242	0xbdcf9e03	-0.1013756
243	0xbd0f5b71	-0.034999315
244	0x3a98994b	0.0011642365
245	0xbddfae12	-0.10921873
246	0x3d653de2	0.05596722
247	0xbdfa1489	-0.12210948
248	0xbc43fd48	-0.011962242
249	0xbd7efd39	-0.06225321
250	0xbc9f9f82	-0.019485239
251	0xbc5def78	-0.013545863
252	0xbcb89b42	-0.02253497
253	0xbc13ec78	-0.0090285465
254	0xbcf16008	-0.029464737
255	0xbd6f7700	-0.058463097

bias f4 [128]
0	0xbcd07888	-0.025448099
1	0xbe2ede94	-0.17077094
2	0xbe9b8fed	-0.30383244
3	0x3e195760	0.14974737
4	0xbdcd1939	-0.100145765
5	0xbe84f92b	-0.2597135
6	0xbdd6571b	-0.10465833
7	0xbc04d560	-0.008107513
8	0xbcdfbcef	-0.02731177
9	0xbd722f0d	-0.059126902
10	0xbf07abac	-0.52996325
11	0x3cdf9a56	0.027295273
12	0xbe619a17	-0.22031437
13	0xbd57f39c	-0.05272256
14	0xbd5b209f	-0.053497907
15	0xbe1d453c	-0.15358442
16	0x3ecac2c0	0.39601707
17	0xbe947c90	-0.29001284
18	0xbe9184a8	-0.2842152
19	0xbec747e6	-0.38922042
20	0xbe87567a	-0.26433164
21	0xbd1b8853	-0.037971806
22	0xbe919d21	-0.28440192
23	0xbeaf0735	-0.34185186
24	0x3e91c71a	0.28472215
25	0xbdadbc5e	-0.08483194
26	0x3ecfe2cc	0.4060272
27	0xbdae9e8c	-0.08526334
28	0x3f1a0377	0.60161537
29	0xbda7becc	-0.081906885
30	0xbdc88cf1	-0.097925074
31	0xbdbe2492	-0.09284319
32	0x3e9370dc	0.28797042
33	0xbdb01625	-0.08597974
34	0xbde806e7	-0.113294415
35	0xbce3341f	-0.027734814
36	0xbea8abfc	-0.32943714
37	0xbdf8e48c	-0.12152967
38	0xbe081094	-0.13287574
39	0xbd4f0d0a	-0.050549544
40	0xbe15b5b4	-0.14620095
41	0x3e2c27cb	0.16812055
42	0xbe5bef3c	-0.2147798
43	0xbec2af23	-0.38024244
44	0x3e2ad180	0.1668148
45	0xbdc9f492	-0.09861101
46	0xbe02d313	-0.12775831
47	0xbd2c27bf	-0.042030092
48	0xbe646ba5	-0.22306688
49	0xbe0f628a	-0.14002433
50	0xbe13ddfc	-0.14440149
51	0xbda44c35	-0.08022348
52	0x3d708e47	0.058729436
53	0xbe6f6315	-0.2337764
54	0xbe07e00d	-0.13269062
55	0x3e471616	0.19442019
56	0xbd72afb6	-0.059249602
57	0xbd0b939f	-0.03407633
58	0x3e071094	0.13189918
59	0xbd5566a0	-0.052099824
60	0xbdd6d334	-0.104895025
61	0xbda4ad92	-0.080409184
62	0x3eb2980e	0.34881634
63	0xbe411909	-0.18857206
64	0xbe0bb161	-0.13641883
65	0x3e852992	0.26008278
66	0xbe2d229d	-0.16907735
67	0xbda76bd7	-0.08174866
68	0xbd171fa6	-0.036895417
69	0xbeeed3b6	-0.46645898
70	0xbdbf4f56	-0.09341304
71	0xbde003c0	-0.10938215
72	0x3e453452	0.1925824
73	0xbd6f0fb8	-0.0583646
74	0x3eaf8296	0.34279317
75	0xbdca3d10	-0.09874928
76	0xbdb06cc6	-0.08614497
77	0xbd1dfa2d	-0.038568664
78	0xbdac267f	-0.0840578
79	0xbd894355	-0.06702296
80	0xbdfd2c8e	-0.12362014
81	0xbd7a9d87	-0.061185386
82	0xbcf97889	-0.030452983
83	0x3d26d761	0.040732745
84	0x3e035b66	0.12827834
85	0xbd03b4a2	-0.032154687
86	0xbd7678d7	-0.060173836
87	0xbeb14147	-0.34620115
88	0xbcd02371	-0.025407525
89	0xbd9e1083	-0.07717993
90	0xbe5a7ff8	-0.21337879
91	0xbe4f10a9	-0.20221199
92	0xbd34236b	-0.04397909
93	0xbcf5e37d	-0.030015701
94	0xbcefb6a7	-0.0292619
95	0xbd71124c	-0.05885534
96	0x3c8777ae	0.01653656
97	0xbdc83fce	-0.09777795
98	0x3e86ce46	0.2632925
99	0xbe2679eb	-0.16257446
100	0xbe0271c2	-0.12738708
101	0x3a9e7b1d	0.0012091134
102	0xbd4f4da7	-0.050611164
103	0xbeb100c8	-0.3457091
104	0x3da72f5c	0.0816333
105	0xbdcb64d8	-0.09931344
106	0xbd68ee5b	-0.05686794
107	0x3e56793c	0.20944685
108	0xbe9683d3	-0.2939745
109	0xbe2209b7	-0.15824018
110	0xbc5bdcc5	-0.013419335
111	0xbe30a5a2	-0.17250684
112	0x3edcdb8a	0.43136245
113	0xbd64b512	-0.055836745
114	0xbe417e64	-0.1889587
115	0x3d86d8cb	0.06584319
116	0x3d97525f	0.07388758
117	0x3dd6297d	0.10457132
118	0xbe06a590	-0.13149095
119	0xbdce23a8	-0.10065395
120	0x3eb0b81b	0.3451546
121	0x3e36de51	0.17858244
122	0x3ecfbbb4	0.40572894
123	0xbddf7213	-0.1091043
124	0xbd5586a4	-0.052130356
125	0xbe53fe52	-0.20702484
126	0xbe59ff79	-0.21288861
127	0xbe34bf7f	-0.17651175
